04-modeling/deep_learning/models/NHLnetWide.pth (torch, 469030 bytes, 5 tensors)

weight f4 [1000, 15]
0	0xbe2405fe	-0.16017911
1	0x3e4b695a	0.19864407
2	0xbdf0236b	-0.117255054
3	0xbde6f7c8	-0.11277729
4	0x3e7e298e	0.2482054
5	0xbd1bc6a0	-0.03803122
6	0xbe739dc5	-0.23790653
7	0xbd521f88	-0.0512996
8	0xbdb82201	-0.08990861
9	0x3c471abf	0.012152373
10	0x3dca423a	0.09875913
11	0xbe1e025b	-0.15430586
12	0x3e184238	0.1486901
13	0xbd1b4a54	-0.03791268
14	0x3d1a8a69	0.037729654
15	0xbe2af8c4	-0.16696459
16	0x3e546d48	0.20744812
17	0xbe07dd90	-0.13268113
18	0xbbc5c860	-0.0060358495
19	0x3e560ffa	0.20904532
20	0x3e63fccf	0.22264408
21	0x3d472c0d	0.048625994
22	0x3de57af1	0.1120509
23	0xbe267767	-0.16256486
24	0x3b1373c5	0.0022499424
25	0x3e0a2834	0.13491899
26	0xbde53e55	-0.111935295
27	0xbdcd5999	-0.10026855
28	0x3df5df38	0.12005466
29	0xbca768f9	-0.020435797
30	0xbded0a51	-0.11574233
31	0x3e4a485a	0.19754162
32	0xbe83030e	-0.25588268
33	0x3d16db3c	0.036830172
34	0xbb992a3e	-0.004674225
35	0xbe4dd147	-0.20099364
36	0xbd897eff	-0.06713676
37	0xbdf08141	-0.11743403
38	0x3d52adb0	0.051435173
39	0x3a78d54c	0.0009492233
40	0xbd9cf236	-0.076633856
41	0x3e471698	0.19442213
42	0x3e1ad8e9	0.15121807
43	0xbe082801	-0.1329651
44	0xbe8427fd	-0.2581176
45	0xbe5dfde7	-0.21678887
46	0xbe3f2594	-0.18666679
47	0x3df41393	0.11917796
48	0xbe226dfa	-0.15862265
49	0x3e7ad9f7	0.2449721
50	0xbdcc359e	-0.09971164
51	0x3e060428	0.13087523
52	0xbd3a41d5	-0.04547294
53	0xbbb12d54	-0.005407015
54	0x3aa21781	0.0012366624
55	0x3d9aec08	0.07564551
56	0xbdd4b82a	-0.10386689
57	0xbcd96848	-0.026538983
58	0xbe5cc67c	-0.21560091
59	0xbe21700b	-0.15765397
60	0xbe801ae0	-0.25020504
61	0x3e3874fd	0.18013377
62	0xbe00e299	-0.1258644
63	0xbe81b303	-0.25331888
64	0xbe1a3f20	-0.15063143
65	0x3e456285	0.19275863
66	0x3e79c51f	0.24391602
67	0x3c93a2eb	0.018022021
68	0x3e7b08c8	0.24515069
69	0x3e0943fe	0.13404843
70	0xbba6b95f	-0.005088016
71	0x3dfd85d0	0.12379038
72	0xbd652554	-0.055943802
73	0xbe58ca10	-0.2117083
74	0x3cb6e730	0.022327036
75	0x3e4e0a4a	0.20121112
76	0xbcea5c94	-0.028608598
77	0x3d32db8c	0.043666407
78	0x3e41211c	0.18860286
79	0xbe02b319	-0.12763633
80	0xbe14b9a0	-0.14523935
81	0x3d5325e2	0.0515498
82	0x3ddcd8a8	0.107835114
83	0x3d541fc2	0.0517881
84	0xbe6322c6	-0.22181234
85	0x3e56bc9b	0.20970385
86	0xbe1f97a0	-0.15585184
87	0x3e318310	0.17335153
88	0x3d8bfb80	0.06835079
89	0xbe1ab78e	-0.15109083
90	0x3e81b07e	0.25329965
91	0x3e2f617f	0.17127036
92	0x3e72da7b	0.23716156
93	0x3e30de17	0.1727222
94	0xbe6d7c31	-0.23191907
95	0xbe780645	-0.24221142
96	0x3e5d52f4	0.21613675
97	0x3ce35124	0.027748652
98	0x3dbada36	0.09123652
99	0x3e17ea2d	0.14835425
100	0x3d25d48d	0.040485907
101	0x3db03c4a	0.08605249
102	0x3e3ac0fb	0.18237679
103	0x3db01ade	0.085988745
104	0x3e73f188	0.23822606
105	0xbdaa876c	-0.08326611
106	0xbe5060af	-0.20349382
107	0x3e1a863b	0.15090267
108	0xbe836ea3	-0.25670347
109	0x3e3e558f	0.18587326
110	0x3dc7aebc	0.09750125
111	0x3d938160	0.07202411
112	0xbe6b8fea	-0.23004118
113	0x3d5ce681	0.053930763
114	0xbda88d8c	-0.08230123
115	0x3db645e3	0.089000486
116	0xbe57f7f9	-0.21090688
117	0x3d2e05c9	0.042485986
118	0xbe3c3c93	-0.18382482
119	0x3e5ec019	0.21752967
120	0x3dadda92	0.084889546
121	0xbd2289fe	-0.03968238
122	0x3dfc76f2	0.123273745
123	0xbdc88ba4	-0.09792259
124	0xbe5fce44	-0.21856028
125	0xbe4684f9	-0.19386663
126	0xbe843cba	-0.2582758
127	0xbe47cc0f	-0.19511436
128	0x3e3a5936	0.18198094
129	0xbe057270	-0.13031936
130	0xbd2feed9	-0.042952392
131	0xbd877462	-0.06613995
132	0xbe1860e4	-0.14880711
133	0xbdcd2806	-0.100173995
134	0x3e833abe	0.25630754
135	0xbdb6bc61	-0.08922649
136	0x3e012134	0.12610322
137	0x3d302456	0.043003403
138	0xbe80d25d	-0.25160494
139	0x3e697f5b	0.22802489
140	0x3d867374	0.0656499
141	0x3ddcee56	0.107876465
142	0x3e852358	0.26003528
143	0xbe495265	-0.19660337
144	0xbe226787	-0.15859805
145	0xbe4ee39f	-0.20204018
146	0x3e5d115d	0.21588655
147	0x3d361ff1	0.044464055
148	0x3e81c064	0.25342095
149	0xbdf28aaa	-0.11842854
150	0x3d29a123	0.041413438
151	0x3e2e9fda	0.17053166
152	0x3c42db69	0.011893132
153	0xbc187073	-0.009304154
154	0xbb245bf5	-0.0025079225
155	0x3e040198	0.12891233
156	0xbdaca4a0	-0.08429837
157	0x3e324989	0.17410864
158	0x3e6feede	0.23430964
159	0x3e7b7f06	0.24560174
160	0xbddf224f	-0.10895216
161	0x3dbab0b7	0.09115737
162	0x3e077d1e	0.13231322
163	0x3aa0a521	0.0012256243
164	0xbd86c273	-0.06580057
165	0xbc356858	-0.011072241
166	0xbe6f6bb9	-0.23380937
167	0xbdf5471f	-0.11976456
168	0x3e3591f7	0.17731462
169	0x3d4f7a95	0.050654013
170	0xbda0ce8b	-0.07851895
171	0x3dcd94d7	0.100381546
172	0x3e1a87d4	0.15090877
173	0xbe81fe81	-0.25389484
174	0xbe5313b8	-0.20612991
175	0x3e3b62ee	0.18299457
176	0xbdb5ada4	-0.0887101
177	0xbe1f6c3e	-0.15568635
178	0x3cde2f11	0.027122052
179	0x3dcfe7d1	0.10151637
180	0x3e1ced1d	0.15324827
181	0xbd97f984	-0.07420638
182	0xbd86faff	-0.065908425
183	0xbe7e02e9	-0.24805798
184	0x3e00f390	0.12592912
185	0x3e7f2a13	0.24918394
186	0xbbca705a	-0.006177944
187	0xbdb86f01	-0.09005547
188	0x3db7b21f	0.08969521
189	0x3e3fa392	0.18714741
190	0xbe638a0c	-0.2222063
191	0xbe4b5e3d	-0.19860168
192	0xbc942200	-0.018082619
193	0xbcda5b85	-0.026654968
194	0xbdde4886	-0.108536765
195	0xbe82345c	-0.25430572
196	0xbe8423d8	-0.25808597
197	0xbc945a24	-0.018109389
198	0xbdebea9d	-0.11519358
199	0xbda621e7	-0.08111935
200	0xbdfe84f7	-0.12427705
201	0x3e7d9444	0.2476359
202	0x3e83aeb4	0.25719225
203	0x3c8f5d45	0.017500529
204	0xbe8213ef	-0.25405833
205	0x3db8f6af	0.09031426
206	0x3d82c749	0.06385667
207	0x3d8c37a0	0.06846547
208	0x3e2b9632	0.16756514
209	0xbdf8d2ac	-0.121495575
210	0x3e71487e	0.2356281
211	0x3e824876	0.25445908
212	0xbe68b33d	-0.22724624
213	0x3c585e74	0.013206113
214	0xbdc8676e	-0.09785353
215	0x3e039dfd	0.12853236
216	0x3d63c173	0.05560441
217	0xbe721c5e	-0.23643634
218	0xbda22cf3	-0.0791873
219	0xbdc6a763	-0.09699895
220	0xbe7cf4c1	-0.24702741
221	0xbe80bbf1	-0.25143388
222	0xbe61dcf9	-0.2205695
223	0x3e25651e	0.16151854
224	0x3c435bf1	0.011923776
225	0xbe59200e	-0.21203634
226	0xbe642e5e	-0.22283313
227	0xbe4816bd	-0.19539924
228	0x3dde038d	0.10840521
229	0xbdf33b7c	-0.1187658
230	0xbe51b350	-0.20478559
231	0x3bfaaa70	0.0076497123
232	0x3e3c8867	0.18411408
233	0x3e4afc50	0.19822812
234	0xbd4ac940	-0.049508333
235	0xbbef3c98	-0.0073009245
236	0x3e48191c	0.19540828
237	0xbca9a2f8	-0.020707592
238	0x3db9c98a	0.09071644
239	0x3e55da56	0.2088407
240	0x3cf1028d	0.029420162
241	0xbe18ba36	-0.14914784
242	0x3e4236b5	0.18966182
243	0x3d85c14e	0.065310106
244	0xbd32fc56	-0.043697678
245	0x3e20c861	0.15701438
246	0xbe2042d8	-0.15650499
247	0x3d9a18ce	0.07524262
248	0x3d10b7aa	0.035331406
249	0xbe5c37ad	-0.21505614
250	0xbd01651d	-0.03159057
251	0xbdf7a0c6	-0.12091212
252	0xbdc078df	-0.09398054
253	0xbd0dbe04	-0.03460504
254	0xbe7b1ab0	-0.24521899
255	0xbc65dc94	-0.014029641

bias f4 [1000]
0	0x3e429bed	0.19004793
1	0xbcac1af3	-0.021008944
2	0xbd9fc68c	-0.07801542
3	0xbe68f379	-0.22749127
4	0x3e67167b	0.2256717
5	0x3e49f13a	0.19720927
6	0xbe82a77e	-0.2551841
7	0x3c05d27f	0.008167862
8	0xbe4a4be0	-0.19755507
9	0xbe278d10	-0.16362405
10	0xbd854537	-0.06507342
11	0x3e09a5ec	0.134422
12	0x3e831ad6	0.25606412
13	0x3e71c4f8	0.23610294
14	0x3dee2d92	0.116297856
15	0xbe75e2b8	-0.24012268
16	0x3d71d49b	0.059040647
17	0x3e083f21	0.13305332
18	0xbe420247	-0.18946181
19	0x3e28d216	0.16486391
20	0x3e64d78a	0.22347847
21	0x3db6b2ab	0.08920797
22	0xbe4e803e	-0.20166108
23	0x3e4d2b49	0.20036043
24	0x3e2fd2c0	0.17170238
25	0xbe484297	-0.19556652
26	0x3e4b6bea	0.19865385
27	0xbe750623	-0.23928122
28	0x3e2a8a5b	0.16654341
29	0xbe5cb51f	-0.21553467
30	0xbe7fe36a	-0.24989095
31	0x3de31e0f	0.110897176
32	0xbdaed196	-0.08536069
33	0x3d0a6956	0.033791862
34	0x3c4d9168	0.012546875
35	0xbc8c3fa8	-0.017120197
36	0xbe39a967	-0.18131028
37	0x3e83b1d3	0.25721607
38	0x3e248074	0.16064626
39	0xbdfacc58	-0.12246007
40	0x3af26673	0.0018493667
41	0x3d8e345d	0.06943581
42	0x3de5c39f	0.112189524
43	0xbe6a7357	-0.22895561
44	0xbdd21efa	-0.102598146
45	0xbdf573de	-0.119849905
46	0x3e4f9e13	0.20275144
47	0xbe6af5a6	-0.2294527
48	0xbddc052c	-0.10743174
49	0xbe61006d	-0.21972819
50	0x3e4d9403	0.20075993
51	0x3de167d2	0.1100613
52	0x3e612021	0.21984912
53	0xbcfa35dd	-0.030543262
54	0xbd96e497	-0.07367819
55	0x3da40f2b	0.080107056
56	0xbd21df70	-0.039519727
57	0xbe3efcb7	-0.1865109
58	0xbe7f6a50	-0.24942899
59	0xbddf5361	-0.10904575
60	0x3d9c9bf2	0.07646932
61	0x3e0a1198	0.13483274
62	0xbdefa7e1	-0.11701942
63	0xbd368473	-0.044559907
64	0x3dfbfad6	0.123037025
65	0xbde2311e	-0.110445246
66	0xbe76a1c2	-0.24085143
67	0xbe762d41	-0.240407
68	0x3d2a7ba7	0.04162183
69	0x3da4eae5	0.08052615
70	0xbd314574	-0.043279126
71	0xbd9436ed	-0.07237039
72	0xbe3aefaf	-0.18255495
73	0x3e6482ac	0.22315472
74	0xbe1b3d3a	-0.15160075
75	0xbdb08694	-0.08619419
76	0x3db49f59	0.08819456
77	0xbe3f9ec8	-0.18712914
78	0xbdea1d34	-0.11431351
79	0xbe12d77c	-0.14340013
80	0x3e041b34	0.12901002
81	0xbdc7f7b8	-0.097640455
82	0x3d7bc477	0.06146666
83	0x3dcbd443	0.09952595
84	0xbe3034be	-0.1720762
85	0xbdd69d7e	-0.10479258
86	0x3e24d974	0.16098577
87	0x3dd7d8ff	0.105394356
88	0x3db5d1c4	0.088779
89	0x3daab530	0.0833534
90	0xbdcddd61	-0.1005199
91	0xbdb808b2	-0.089860335
92	0x3e06e534	0.13173372
93	0x3e18ca69	0.14920963
94	0x3e2e3207	0.17011271
95	0xbe2f7124	-0.17133003
96	0x3e7ab5fc	0.24483484
97	0xbe5a28fc	-0.21304697
98	0xbe5f268b	-0.21792047
99	0xbd143d02	-0.036190994
100	0x3e41b663	0.18917231
101	0x3e42b511	0.19014384
102	0xbe80ebea	-0.25179988
103	0x3e246253	0.16053133
104	0x3e10b6d7	0.14132248
105	0xbe72e4a3	-0.2372003
106	0xbcc8b63e	-0.024500962
107	0x3e3678b3	0.1781948
108	0x3e301c52	0.17198303
109	0xbd952c3c	-0.07283828
110	0x3db7553f	0.08951806
111	0x3df430ec	0.119233936
112	0x3e427191	0.18988635
113	0xbe168f16	-0.1470302
114	0xbe552eb1	-0.20818593
115	0xbd274bd1	-0.04084379
116	0x3dd5c8f9	0.10438723
117	0x3e51181c	0.20419353
118	0x3e356d14	0.17717391
119	0x3e15cbc1	0.14628507
120	0xbdc01bec	-0.09380326
121	0x3d8fa470	0.07013786
122	0x3e81ebe1	0.25375274
123	0xba5de29b	-0.0008464248
124	0x3e0691d4	0.13141567
125	0x3d1a7923	0.03771318
126	0xbe2616f3	-0.16219692
127	0x3cd6be81	0.026213886
128	0x3c8cd57c	0.017191641
129	0x3e20011f	0.15625428
130	0xbdacbb19	-0.084341235
131	0x3ce29652	0.027659569
132	0xbda0b898	-0.078477085
133	0x3c6349e3	0.013872596
134	0x3e05e84d	0.13076897
135	0xbb4c3027	-0.003115663
136	0x3d6534f0	0.05595869
137	0x3d462577	0.048375573
138	0xbe57dca9	-0.21080269
139	0x3e745ef5	0.23864348
140	0x3e44685e	0.19180438
141	0x3dcd9e63	0.100399755
142	0x3de8d56e	0.113688335
143	0xbdf77b2f	-0.12084042
144	0xbd9791eb	-0.074008785
145	0xbe1378d6	-0.14401564
146	0xbde06f27	-0.109587006
147	0xbe4aaf35	-0.19793399
148	0x3e2f14b2	0.17097738
149	0xbe24be62	-0.1608825
150	0x3e7a5b8a	0.24448982
151	0xbe5990ba	-0.21246615
152	0x3e4bb33f	0.19892596
153	0x3e5adebf	0.21374033
154	0x3ddb7ddc	0.10717365
155	0xbdec79bc	-0.115466565
156	0xbd0a7312	-0.033801146
157	0xbe270270	-0.16309524
158	0x3e41560a	0.18880478
159	0x3e48b8c3	0.19601731
160	0xbda7622f	-0.08173024
161	0xbd993be0	-0.074821234
162	0xbe80c9c4	-0.25153935
163	0x3bcef884	0.0063162465
164	0x3e00e482	0.12587169
165	0xbce29d2d	-0.027662838
166	0xbe64f00c	-0.22357196
167	0x3e37d6f6	0.17953095
168	0xbd83c9c6	-0.064349696
169	0xbdaee090	-0.08538926
170	0x3dc5c8cf	0.09657442
171	0xbd87443d	-0.06604812
172	0xbe23122a	-0.15924898
173	0x3e1379a4	0.14401871
174	0x3e4d4a49	0.20047869
175	0xbe46e09b	-0.19421618
176	0xbe04857d	-0.12941547
177	0xbdb6d987	-0.08928209
178	0x3e391b15	0.18076737
179	0xbdefa630	-0.117016196
180	0x3bb3397f	0.0054695006
181	0x3d723b27	0.059138443
182	0x3d562d17	0.052289095
183	0xbdf489d5	-0.11940352
184	0x3e42267a	0.1895999
185	0xbd547440	-0.051868677
186	0xbd358610	-0.044317305
187	0x3d000fb2	0.03126497
188	0x3df289b8	0.11842674
189	0x3dda426b	0.106571995
190	0x3d9d9ae4	0.07695559
191	0x3deeb220	0.116550684
192	0xbe142713	-0.1446803
193	0xbc6ad078	-0.014331929
194	0xbde666b8	-0.11250061
195	0x3dde6194	0.10858455
196	0x3e0b8896	0.13626322
197	0xbdfbfc2b	-0.123039566
198	0x3e48af60	0.1959815
199	0x3d3cb5e0	0.046071887
200	0x3e4287cc	0.18997115
201	0x3d8ece88	0.069729865
202	0x3d60863c	0.054815516
203	0x3d54ea28	0.05198112
204	0xbc438d69	-0.01193557
205	0xbdd1b540	-0.10239649
206	0xbdeec067	-0.116577916
207	0x3df99df3	0.121883295
208	0x3e63ef60	0.22259283
209	0x3e4d18c1	0.20028974
210	0xbda6dc08	-0.081474364
211	0xbe5c76ae	-0.21529648
212	0xbb84d439	-0.004053619
213	0x3e1a921a	0.15094796
214	0x3e064c03	0.13114934
215	0x3e5b888c	0.21438807
216	0xbe78d4d8	-0.24299943
217	0x3db1b6b1	0.08677424
218	0xbd37049e	-0.044682138
219	0xbddc8bf2	-0.1076888
220	0xbdb007b9	-0.08595223
221	0x3e7a6230	0.24451518
222	0x3dd7ee16	0.10543458
223	0x3d994fc5	0.07485918
224	0xbe695976	-0.22788033
225	0x3e3a3c51	0.18187071
226	0xbe457d7d	-0.19286151
227	0x3e813caa	0.25241596
228	0xbd431923	-0.047631394
229	0xbde5c32d	-0.112188675
230	0xbe71deb6	-0.23620114
231	0x3e804d5f	0.2505903
232	0xbe7c67f5	-0.24649031
233	0xb9e862d1	-0.00044324112
234	0x3d69c930	0.057076633
235	0xbcc45fd7	-0.023971481
236	0xbe2eb19a	-0.17059937
237	0x3e1f7bdd	0.15574594
238	0x3e61c0bb	0.22046177
239	0xbe12cc7b	-0.14335816
240	0x3e24bfa0	0.16088724
241	0x3e78ac77	0.2428454
242	0x3e32a723	0.1744657
243	0x3e4224ea	0.18959394
244	0xbe73382f	-0.23751901
245	0x3d12eaf1	0.03586859
246	0x3a4cf69f	0.0007818732
247	0x3e626e7e	0.22112462
248	0x3e3b2fce	0.18279955
249	0xbe3f7db5	-0.18700297
250	0xbe54f71f	-0.20797394
251	0x3cd4d973	0.025982594
252	0x3dd7bde2	0.10534264
253	0xbdc3e857	-0.095658
254	0xbd56874f	-0.052375134
255	0xbe70ad2e	-0.23503563

weight f4 [100, 1000]
0	0x3cae288b	0.021259567
1	0x3bfd1206	0.007723096
2	0xbc89868b	-0.016787788
3	0xbbd3a206	-0.0064585237
4	0xbbf4bfcd	-0.0074691535
5	0xbb77fe83	-0.003784091
6	0x3c9b4380	0.018953085
7	0xbccb8887	-0.024845375
8	0x3b950e78	0.004548844
9	0x3c178719	0.009248518
10	0xbc157d66	-0.009124136
11	0x3cb44913	0.0220075
12	0xbc3ee237	-0.0116506135
13	0xbca9f734	-0.020747758
14	0x3c0c3212	0.00855686
15	0x3cd22fd9	0.025657581
16	0x3c5c8f37	0.013461879
17	0xbc45be6f	-0.012069329
18	0x3c6dc3cd	0.014512015
19	0x3b99cace	0.0046933657
20	0x3ce79b30	0.028272241
21	0xbb8b569d	-0.0042522685
22	0x3ccd43f6	0.02505682
23	0x3ce10ff5	0.02747343
24	0xbccdb781	-0.025111916
25	0xbc8d0940	-0.017216325
26	0x3c557626	0.013028657
27	0xbc9fc01d	-0.019500786
28	0x3c994460	0.018709362
29	0x3d0bdba2	0.034145005
30	0xbcd8701a	-0.026420642
31	0x3bb8944b	0.0056329123
32	0xbce675e5	-0.028132388
33	0xbca8407d	-0.020538563
34	0x3cdcb9ad	0.026944006
35	0xbc8df238	-0.017327413
36	0x3c787f83	0.01516712
37	0xbd09ce97	-0.033644285
38	0x3c2254d3	0.009907919
39	0x3cc209d0	0.02368632
40	0x3cc378c8	0.023861304
41	0xbcfeeb78	-0.03111814
42	0x3d1b03dc	0.037845477
43	0x3c817e76	0.015807372
44	0xbc8b753f	-0.01702368
45	0xbc453c8e	-0.012038363
46	0x3cb6994d	0.022289896
47	0xba96cd2b	-0.0011505237
48	0x3c9686f2	0.018374894
49	0x3ce3c6d4	0.02780477
50	0x3c835fd8	0.016036913
51	0xbb22bfa9	-0.0024833477
52	0x3b3daa77	0.0028940716
53	0x3d2525a8	0.040319115
54	0xbc4aa449	-0.01236827
55	0x3bb906a4	0.0056465436
56	0xbb80702c	-0.003919622
57	0xbcc3831a	-0.023866225
58	0x3d15721d	0.03648578
59	0xbd066215	-0.032808382
60	0x3ca41693	0.020030295
61	0x3c0e1a67	0.008673287
62	0x3cf51bb8	0.029920444
63	0x3c21016c	0.009826999
64	0x3c6389f0	0.013887867
65	0x3cf4a74a	0.029864926
66	0x3ca22ad8	0.01979582
67	0x3d1738c0	0.036919355
68	0xbc6f3e3c	-0.01460224
69	0xbd018c1f	-0.03162777
70	0xbb8e4ed3	-0.0043428927
71	0xbc2d096b	-0.010561327
72	0xbc9100ae	-0.01770052
73	0xbce3e872	-0.0278208
74	0xbcb5c185	-0.022187004
75	0x3c8ae557	0.01695506
76	0xbc46a35b	-0.012123908
77	0xbbf2113b	-0.007387308
78	0x3cb5c186	0.022187006
79	0xbcfca584	-0.030840643
80	0x3ca33629	0.019923287
81	0x3c94d66e	0.018168654
82	0xbd0972ee	-0.03355687
83	0xbd080442	-0.033207186
84	0xbc63ad0b	-0.013896237
85	0xbc10547d	-0.008809206
86	0xbbc74e11	-0.0060823043
87	0x3c703529	0.014661112
88	0x3c1b750b	0.009488354
89	0x3d151221	0.036394242
90	0x3c2da958	0.010599457
91	0x3c70a996	0.01468887
92	0x3ce65c08	0.028120056
93	0xbbec111f	-0.0072041894
94	0x3cfb5430	0.030679792
95	0x3c3f3ae8	0.011671759
96	0xbc9e4f10	-0.01932481
97	0xbc95ecf8	-0.018301472
98	0x3b621f61	0.0034503567
99	0xbce7baff	-0.028287409
100	0x3c4f0b92	0.012637036
101	0xbc8d2ee9	-0.017234283
102	0x3c967998	0.018368527
103	0x3cc07230	0.023491949
104	0x3b0fc7bb	0.0021939117
105	0x3aab4703	0.0013067428
106	0x3cc8827a	0.024476279
107	0xbb318165	-0.0027085182
108	0xbb9bd27c	-0.0047553163
109	0xbca7a453	-0.020464098
110	0x3b8ff634	0.0043933634
111	0xbd1d5897	-0.038414564
112	0x3c286e44	0.010280196
113	0xbc9f7bf6	-0.019468289
114	0xbba81c66	-0.0051303385
115	0xbc73a9dc	-0.014872041
116	0xbcef3e42	-0.029204492
117	0x3d02d0c4	0.031937376
118	0xb85128b1	-4.986738e-05
119	0x3d1031d6	0.035203777
120	0x3c5e1813	0.013555544
121	0x3c23a36d	0.009987694
122	0xbcc18dae	-0.023627128
123	0xbb907ee6	-0.0044096587
124	0xbbede105	-0.0072594904
125	0xbcb30d72	-0.021856997
126	0xbd088d1a	-0.03333769
127	0x3c6f4ef8	0.01460623
128	0xbcd09f98	-0.025466725
129	0x3a909989	0.0011032085
130	0xbc882b5e	-0.016622242
131	0xbcaacc1f	-0.020849286
132	0x3cf68450	0.030092388
133	0x3d06ef82	0.032943256
134	0xbc2f3b70	-0.010695323
135	0x3ca2ae6f	0.019858567
136	0xbc553588	-0.013013251
137	0xbca64b1e	-0.02029949
138	0xbd039e46	-0.032133363
139	0x3c44ac39	0.012003952
140	0xbc3d25d5	-0.011544664
141	0xbb6da6f0	-0.0036262833
142	0xbd0060bc	-0.031342253
143	0xbd1a4cc2	-0.03767086
144	0xbc2dcfb3	-0.010608601
145	0xbb1b78e0	-0.002372317
146	0xbc17403a	-0.009231621
147	0xbba6779a	-0.0050801756
148	0xbc1ef0eb	-0.009700994
149	0xbd0751e3	-0.033037078
150	0x3d0249a4	0.03180851
151	0xba9bd423	-0.0011888783
152	0x3cc82de9	0.024435954
153	0xbc817d95	-0.015806952
154	0xbcb17e91	-0.021666797
155	0x3cc955ea	0.0245771
156	0x3ce577d5	0.028011242
157	0xbd0697de	-0.032859676
158	0xbbf2cd90	-0.007409759
159	0x3ca8173f	0.020518897
160	0x3acb50c3	0.001551174
161	0xbc26af70	-0.0101736635
162	0xba622d2e	-0.0008627948
163	0x3cea1da2	0.028578583
164	0xbc73b3c7	-0.014874405
165	0xbcba82ae	-0.022767391
166	0xbce25d87	-0.027632488
167	0xbc91d7d3	-0.017803108
168	0xbb11ccfb	-0.0022247422
169	0x3c63af51	0.013896779
170	0xbc781232	-0.015141057
171	0xbc567350	-0.013089016
172	0xbc99d0bf	-0.018776296
173	0x3cab75db	0.020930221
174	0xbc98f28c	-0.018670343
175	0x3d27d7fc	0.040977463
176	0x3cac6e09	0.021048563
177	0x3bc2586d	0.0059309513
178	0xba8679e5	-0.0010259716
179	0xbc358fb6	-0.011081627
180	0x3cb9aed7	0.022666378
181	0x3cc6ce00	0.02426815
182	0x3ce610c6	0.02808417
183	0xbd14567a	-0.036215283
184	0x3cc25bce	0.023725417
185	0x3d110275	0.035402734
186	0x3cb03379	0.02150892
187	0xbc8a5122	-0.01688439
188	0xbc063391	-0.008191005
189	0xbd117f85	-0.035522003
190	0xbbb08353	-0.005386749
191	0xbd135172	-0.035966344
192	0xbccda086	-0.025100958
193	0x3c0b067a	0.008485431
194	0xbbf578a3	-0.0074911877
195	0x3c75bf9a	0.014999295
196	0xbc414275	-0.01179563
197	0xbd2b4782	-0.041816242
198	0x3cf060d4	0.029343046
199	0x3c8cbe0e	0.017180469
200	0xbce8af4f	-0.028403906
201	0x3cea25aa	0.028582413
202	0x3bfc9f84	0.0077094454
203	0x3aff3108	0.0019469569
204	0x3c67d134	0.014148999
205	0xb9b91c1f	-0.00035306902
206	0x3c4868eb	0.012232046
207	0xbd1e2bd4	-0.038616017
208	0x3cf9eebb	0.030509343
209	0x3c74ad8a	0.014933953
210	0x3c7dc1f5	0.0154881375
211	0x3c8e9682	0.017405752
212	0xbcb2ed8b	-0.021841785
213	0xbb0443f2	-0.00201821
214	0xbcee1c5c	-0.029066257
215	0x3bde46d0	0.006783344
216	0xbcba2ba3	-0.022725886
217	0x3cc307d2	0.02380744
218	0xbc910765	-0.017703721
219	0xbc900af9	-0.017583357
220	0x3bc3f8ee	0.0059806025
221	0x3c6f48f2	0.014604794
222	0xbc9dbbaf	-0.019254534
223	0x3cd5a197	0.026078029
224	0x3d0f8443	0.035038244
225	0x3cb5b320	0.02218014
226	0x3c478174	0.01217686
227	0xbcfac669	-0.030612187
228	0x3b7dbd66	0.0038717627
229	0xbbf60d59	-0.0075089154
230	0x3cba0d57	0.022711439
231	0x3bb270e1	0.005445585
232	0x3c2cd2ca	0.010548303
233	0xbca0642b	-0.019579014
234	0x3d123ad9	0.035700653
235	0xbc9e3dbf	-0.019316552
236	0x3cae5bee	0.02128407
237	0x3ccdd153	0.025124228
238	0x3ca963b9	0.020677434
239	0x3ca8eae5	0.020619819
240	0x3c113d22	0.008864673
241	0x3b555b1d	0.0032555528
242	0xbc711992	-0.014715569
243	0xbd02cef7	-0.03193566
244	0x3b5c9a20	0.0033661202
245	0x3bbf6047	0.0058403346
246	0x3d2342f2	0.039858766
247	0x3cccecd0	0.025015265
248	0x3ceaec97	0.028677268
249	0xbb0b5ad4	-0.0021263855
250	0xbc8a590a	-0.01688816
251	0x3bbc78b2	0.0057516927
252	0x3c65ddc2	0.014029922
253	0xbc2546cc	-0.01008768
254	0xbcf561c3	-0.029953843
255	0xbcc50ede	-0.02405494

bias f4 [100]
0	0x3cd4bb4e	0.02596822
1	0xbc914ff4	-0.01773832
2	0xbc7bbdd2	-0.015365081
3	0xbd0b549b	-0.034016233
4	0xbbca5ac8	-0.0061753727
5	0x3944de45	0.00018774818
6	0xbca926a2	-0.020648304
7	0x3cc34405	0.023836145
8	0xbd004e24	-0.03132452
9	0x3ae64015	0.0017566705
10	0x3ca70199	0.020386504
11	0x3c6baebb	0.014384921
12	0x3d35fc06	0.0444298
13	0x3cfff729	0.031245785
14	0x3ce0c901	0.027439596
15	0xbae4d8f2	-0.0017459674
16	0x3c36cd49	0.011157342
17	0x3d17ad72	0.037030645
18	0xbd1e9db9	-0.038724635
19	0xbc694031	-0.014236496
20	0x3d1730e8	0.036911875
21	0x3ca12ae5	0.019673774
22	0x3c92e22b	0.01793011
23	0xbb8490a6	-0.0040455637
24	0xbb6fee7d	-0.0036610656
25	0xbc9b9bf8	-0.01899527
26	0x3bf5a3e6	0.007496345
27	0xbc9160af	-0.017746298
28	0xbcc99d2f	-0.024611084
29	0xbbea8604	-0.007157089
30	0xbcadce9c	-0.021216683
31	0xba3f4c23	-0.0007297417
32	0xbd0ecd22	-0.0348636
33	0xbb17ace0	-0.0023143813
34	0x3c9b94c4	0.018991835
35	0xbc9ec3d2	-0.019380484
36	0xbbd8dce4	-0.006618129
37	0xb72d1411	-1.0316276e-05
38	0xbcb70fff	-0.022346495
39	0xbbb9e7ee	-0.0056734
40	0x3cffffd9	0.031249927
41	0xbce20717	-0.027591271
42	0xbd1f9fc7	-0.038970735
43	0x3cb6724d	0.0222713
44	0xbcfd83ce	-0.030946638
45	0xbc4311d6	-0.011906108
46	0xbc0fecd9	-0.008784496
47	0xbc04b2b8	-0.0080992505
48	0xbc0f8945	-0.008760755
49	0x3b35bd98	0.0027731415
50	0x3cac8062	0.021057311
51	0x3caf1ca2	0.021375958
52	0xbcc95e67	-0.024581147
53	0x3cd4d0d4	0.025978483
54	0xbc4b8a7b	-0.012423153
55	0x3bdf770d	0.006819612
56	0xbb9dc1e2	-0.0048143724
57	0xbcf04671	-0.029330464
58	0xb9d3d259	-0.00040401777
59	0xbcfec2fb	-0.031098833
60	0xbcb11234	-0.021615125
61	0x3ccd87ed	0.025089229
62	0xbc524dff	-0.0128359785
63	0xbc3227a4	-0.010873709
64	0xbb88473a	-0.0041588815
65	0x3d00c9c3	0.031442415
66	0xbc804ee8	-0.015662625
67	0x3c3f65ed	0.011682016
68	0xbb7cab8f	-0.0038554405
69	0xb9e08a73	-0.00042827762
70	0x3c2f785d	0.010709849
71	0x3cf03c08	0.0293255
72	0xbc15a819	-0.009134316
73	0x3c91df80	0.017806768
74	0xbcee045b	-0.029054811
75	0x3cdebe6d	0.027190411
76	0x3c1942bf	0.009354292
77	0xbcddab3c	-0.02705919
78	0xbc65749f	-0.014004855
79	0xbc9e0c7a	-0.019293059
80	0x3cd694ad	0.026193941
81	0xbbd11446	-0.0063805906
82	0x3b0b31a8	0.0021239314
83	0xbd1a7e95	-0.037718374
84	0x3d0f7594	0.03502424
85	0xbca08a90	-0.019597322
86	0xbbf2cffa	-0.0074100466
87	0x3c8bf887	0.01708628
88	0x3c0b69ef	0.008509143
89	0x3baf6eff	0.005353808
90	0x3cebe300	0.028794765
91	0x3be071e9	0.0068495166
92	0x3cce5ab8	0.025189742
93	0x3c9d0177	0.019165738
94	0xbcce0850	-0.025150448
95	0x3c2fd8f5	0.010732879
96	0x3c71f210	0.014767185
97	0xba790ff5	-0.0009500974
98	0x3c82b44d	0.015955115
99	0xbc4f601e	-0.0126571935

weight f4 [1, 100]
0	0x3e3926b6	0.18081173
1	0xbda5fc73	-0.081047915
2	0xbdaea768	-0.08528024
3	0x3d5fccd3	0.054638695
4	0x3e2759a2	0.16342786
5	0x3e065ba5	0.13120897
6	0x3db484bd	0.0881438
7	0x3d740d72	0.059583135
8	0x3ca2fd07	0.019896043
9	0xbd8d8435	-0.06909982
10	0xbdca026d	-0.09863744
11	0x3ccbd45f	0.02488154
12	0xbdfe04bb	-0.12403246
13	0xbd2e9cce	-0.04263001
14	0xbd2099bb	-0.03920911
15	0x3db7f8a2	0.0898297
16	0x3db71dcc	0.0894123
17	0x3d83e4d5	0.064401306
18	0xbdb7ed41	-0.089807995
19	0xbdc53f0e	-0.09631167
20	0x3d514b6d	0.051097322
21	0xbd04692e	-0.03232687
22	0x3dd4134c	0.10355243
23	0x3d55ee20	0.052229047
24	0x3d03ef8f	0.032210883
25	0xbd73d72b	-0.059531372
26	0xbd5f993b	-0.05458949
27	0xbda94965	-0.08265952
28	0x3db93edf	0.09045195
29	0xbdb2cc60	-0.08730388
30	0x3da83d81	0.08214856
31	0xbd20dc5a	-0.039272644
32	0x3dae5747	0.085127406
33	0xbdaedd74	-0.085383326
34	0xbdb84d40	-0.08999109
35	0x3c917616	0.017756503
36	0xbdcd2fea	-0.100189045
37	0x3cf95e37	0.030440433
38	0xbd035e03	-0.03207208
39	0x3d92c4a0	0.071664095
40	0xbdb60ade	-0.088887915
41	0x3da0d1d4	0.078525215
42	0xbdd8ea03	-0.10591509
43	0x3dc7c8e7	0.09755116
44	0xbd0c16d4	-0.034201458
45	0x3dcb4656	0.09925525
46	0x3d713c72	0.058895536
47	0xbdf381a4	-0.11889961
48	0xbde8fcbc	-0.1137633
49	0x3d9bdce4	0.07610491
50	0xbe00b0cd	-0.12567444
51	0x3d8f61b4	0.07001057
52	0xbe17f248	-0.14838517
53	0x3d710c87	0.058849838
54	0x3dead087	0.11465555
55	0xbdb6e5a1	-0.08930517
56	0xbde6816b	-0.11255153
57	0xbd6856f7	-0.05672356
58	0x3d29ce6e	0.041456632
59	0x3d3d6850	0.04624206
60	0x3e1a038e	0.15040419
61	0x3cd932d5	0.026513496
62	0xbe0ee110	-0.13953042
63	0x3d0fdf89	0.03512529
64	0x3dda5d12	0.10662283
65	0x3d8119dd	0.06303761
66	0xbdf2d56c	-0.11857113
67	0xbdb0e2bf	-0.086369984
68	0xbdbf936a	-0.09354289
69	0xbd53fd20	-0.05175507
70	0xbde312a4	-0.1108754
71	0x3da6c8cb	0.08143767
72	0xbe074290	-0.13208985
73	0x3dc79ca0	0.09746671
74	0xbd993162	-0.07480122
75	0x3d1f64b8	0.038914412
76	0x3e00fa3e	0.1259546
77	0x3ca5e323	0.020249909
78	0xbd36b904	-0.04461004
79	0x3dc908d8	0.0981614
80	0xbd296ab5	-0.04136153
81	0xbdb9bf27	-0.090696625
82	0xbdd25b1a	-0.102712825
83	0xbdbc8090	-0.09204209
84	0x3cb6d468	0.02231808
85	0x3dc7de23	0.09759166
86	0x3cbf8350	0.023378044
87	0xbd73c564	-0.05951442
88	0x3c827784	0.01592613
89	0x3d97bed1	0.07409442
90	0x3d9d9bd1	0.07695735
91	0xba9c8965	-0.0011942802
92	0x3d860851	0.06544555
93	0xbe0e39f6	-0.13889298
94	0x3d850090	0.06494248
95	0x3cd5b27e	0.026086088
96	0x3d39c891	0.04535729
97	0x3de349ed	0.110980846
98	0x3e14f184	0.14545256
99	0x3db30484	0.08741096
