04-modeling/deep_learning/models/NHLnet.pth (torch, 36306 bytes, 13 tensors)

weight f4 [100, 15]
00000000: 0e13 063e 94fd b8be 7d85 61be 6d79 53be
00000010: aa35 183e 1b08 abbd 0df3 a63d b397 e13e
00000020: 4df3 61bd 9eed 86be 0402 f9bd bad8 953e
00000030: cf3c 0c3d 22f1 0bbc bde2 a03e ba56 cbbd
00000040: 20bb 54be ac2a 35be 728e a5be fa14 ccbd
00000050: 27f7 babc e55d 5e3e b5e7 273d 4f10 58be
00000060: 444f b93d 4b2e 133e 553d e43e 76d7 1a3e
00000070: 8891 abbd 6ac1 823d c894 3a3d ec6d 263e
00000080: 6006 0abe 3f6e 34be 000f f0bd c025 15be
00000090: d665 b0be fd26 9b3e e0c8 56be 524a 663d
000000a0: 9d27 1fbe 5cbb 95be 118e b1be a1a4 8b3e
000000b0: 7c22 553e f8c2 26bd bb12 ac3d 97ae 1a3e
000000c0: 740d 08be 8018 823e 40aa d3bd a924 08be
000000d0: f539 eebd 4a4e a0bd 2fd9 f03e 5bbd a0be
000000e0: ca43 553d 6eed fd39 165e 9f3d 1d36 ef3e
000000f0: f7a4 a93d 398f 22be 285e f93c 6641 efbc
00000100: f6c4 a83e eb21 bdbe 8e00 d2bd 83af 63bc
00000110: 6be6 59be 91de 9a3c aabb cd3e 01f8 293c
00000120: 70f8 4abe 6df5 34bd 93ca 11bd 6de8 75be
00000130: 5d25 65bc 7328 db3d 0570 e73d 3157 223d
00000140: 1851 97bd 5da8 843d 96d7 49be 6c56 38bd
00000150: 44aa 273e b8f5 8a3d 43fc 3abf c9d6 47be
00000160: 38ae 43bd 25b9 acbd ed1c 103f eb36 e93d
00000170: f28d a93e 1dd1 893e 126a 9ebe 6cfd b43c
00000180: dfef 8d3d bb10 13bc 16fa 8f3e da34 913d
00000190: 9597 103e 99a4 18bd 7611 d13e 02bb b1bd
000001a0: 1b09 a8bd e891 073e 3e1a 7abe 6a71 3ebe
000001b0: 4d61 12be 917d 1ebd 7412 e5bc 8cb5 503c
000001c0: a4f8 e33e 10f2 9b3e e810 f53d 0161 40bd
000001d0: b1d0 a13e cfd7 7fbd aa41 a13e 1838 e13b
000001e0: 6b4b fdbd 2935 25bd 9947 923e 020a 07bf
000001f0: fd29 07be 1a1f 5cbd f5f4 7d3d 869f 163d
00000200: 0e32 b83e 7df2 a73e e1ee 2a3e d6b4 56be
00000210: 0a52 d6bd 6c4f 62bc 50a9 90be 17e1 fbbd
00000220: 0ef9 d9bd 8360 993e d31c 913d ad9d 823e
00000230: b444 203e eeed 653d c191 c03e c40c a73e
00000240: 3fd2 d9bd 804a b8bd 7f62 d8be f26b 07bd
00000250: 2f24 c7be c5e2 fa3d bcf5 d6bd 93c8 59be
00000260: 2a91 0fbc 823a 8d3e 5953 afbc 7432 2f3a
00000270: 61d6 34be a472 073f 15b4 693e f3f9 8b3d
00000280: 0165 d3be f469 37bd 8a2f fe3d 424e 823e
00000290: 6872 fabb 45dc ff3b e6e6 8d3e aca8 96be
000002a0: f569 0bbd f9b6 e9bc a35a 14bd 268a e33c
000002b0: cdab bd3e 37e6 47be 194f 0e3e 6a5b c33d
000002c0: 927c c23e de66 d0bc 1cc8 7cbe 2839 8f3e
000002d0: d213 033f 198f 96be 9aeb 0ebe 1f85 8dbe
000002e0: 3e32 c53b d76f 4c3e 5201 213e 5135 233e
000002f0: d65b a7be fe79 953c 7d98 48be 3847 843d
00000300: dd56 e1bd 1933 80bc 89d5 8a3e 63ef 9d3e
00000310: 9e6d 763e 14e9 d8bd 587e 9abd 9c8f aa3e
00000320: fe6c 1a3d e711 4cbd b703 42bc 06c7 d83e
00000330: 8a35 153c 3e56 1dbe cf0c 383e 0b81 b73d
00000340: b748 d4bd 6c9f e73e dce4 dabe efb4 483e
00000350: 2312 6b3b c9b4 c5be 0927 233e e9dc cabe
00000360: c636 a3be a438 a53d 669d 41bd f7c1 69be
00000370: a9b1 b53d 3dfd f9bd 93aa 033c 0e0d 543d
00000380: 0282 d9bd 3b46 753d e427 5cbe 501e 82bd
00000390: cfa6 abbe da76 d6bd 7bae a63d 2f9e 803e
000003a0: 0afe 4bbe 73e8 c13e 72da 683e 1dd4 593c
000003b0: cd32 363e d77b 28bd 5982 95be 75b7 adbd
000003c0: 2515 d2be 371a 253e 5ee8 7abe 4678 afbe
000003d0: 10ff 12be 9d32 073e f951 f0bd 07f0 51bd
000003e0: e24e e6bd 9808 75be 293f 8b3e e0f8 08be
000003f0: 0065 26be d279 f6bd b5e2 19be ad55 6b3e
0.13093206 -0.36130965 -0.22023578 -0.20651789 0.14864221 -0.08351155 0.08151827 0.4406105
-0.05516367 -0.26353163 -0.121585876 0.29266912 0.03423768 -0.008541377 0.31422988 -0.09928651
-0.20774508 -0.1769206 -0.3233524 -0.099649385 -0.02282293 0.21715505 0.040992457 -0.21099971
0.09048322 0.14373128 0.44578043 0.15121254 -0.08377367 0.06384547 0.045552045 0.1625287
-0.13478994 -0.1762018 -0.11721611 -0.14565182 -0.34452695 0.30303183 -0.20975065 0.05622322
-0.15542455 -0.29244506 -0.346787 0.2727404 0.20813936 -0.04071328 0.0840201 0.15105663
-0.13286382 0.25409317 -0.10335207 -0.13295235 -0.11632148 -0.078274325 0.47040698 -0.31394467
0.0520666 0.0004843282 0.07781617 0.46720973 0.08283418 -0.15874948 0.030440405 -0.02920599
0.3296277 -0.3693994 -0.10254012 -0.013896826 -0.21279304 0.018904956 0.4018224 0.01037407
-0.19821334 -0.04417937 -0.03559358 -0.24014445 -0.013985959 0.107010745 0.11300663 0.039633933
-0.07388514 0.06477425 -0.19711146 -0.045004293 0.16373545 0.067851484 -0.7304117 -0.19515528
-0.04777357 -0.08433751 0.5629414 0.11387428 0.33116108 0.26917353 -0.309403 0.022093497
0.069305174 -0.008976157 0.28120488 0.07090159 0.14120324 -0.037266348 0.40833634 -0.08678247
-0.08204862 0.13239253 -0.24424073 -0.18597952 -0.1429493 -0.03869397 -0.0279629 0.012738597
0.44525635 0.30458117 0.11966115 -0.04696751 0.3160453 -0.06246167 0.3149541 0.006873142
-0.123679005 -0.0403339 0.2857025 -0.52749646 -0.13199611 -0.0537406 0.062001187 0.036773227
0.3597569 0.3280219 0.16692688 -0.20967421 -0.104648665 -0.013812881 -0.28254175 -0.12298792
-0.106432065 0.29956445 0.07085576 0.25510922 0.15651208 0.05613511 0.376112 0.32626927
-0.106358044 -0.08998585 -0.42262647 -0.03306193 -0.38894793 0.12250284 -0.10496089 -0.21267919
-0.008762637 0.275837 -0.021402048 0.00066832383 -0.17659904 0.529093 0.22822602 0.068347834
-0.41287997 -0.04477878 0.12411411 0.2545033 -0.007643033 0.0078082406 0.27715224 -0.2942556
-0.034036595 -0.028529631 -0.03621925 0.027775835 0.37045136 -0.19521414 0.13897361 0.0953892
0.37985665 -0.025439676 -0.2468571 0.27973294 0.5120212 -0.2940605 -0.13957062 -0.27640626
0.006017952 0.19964539 0.1572316 0.15938307 -0.32687253 0.018246647 -0.1958942 0.064588964
-0.11002896 -0.015649365 0.2711604 0.308467 0.24065253 -0.10591331 -0.075436294 0.3331269
0.0377016 -0.04982176 -0.011841706 0.42339343 0.009107003 -0.1536493 0.17973636 0.0896016
-0.10365432 0.45238817 -0.4275273 0.1960027 0.0035868965 -0.3861449 0.1593286 -0.39621666
-0.31877726 0.08067444 -0.047269247 -0.22827898 0.088717766 -0.122065045 0.0080362735 0.051770262
-0.106205 0.05988143 -0.21499592 -0.06353438 -0.33525702 -0.10471888 0.08138748 0.25120685
-0.19921127 0.37872657 0.2273958 0.013295201 0.17792816 -0.041133728 -0.2920101 -0.08482257
-0.41031757 0.16123281 -0.24502704 -0.3427145 -0.14355111 0.13202901 -0.11734385 -0.0512543
-0.112455145 -0.2392906 0.27196625 -0.13376188 -0.16249466 -0.12034954 -0.15027888 0.22981901

bias f4 [100]
00000000: 52bd bdbd 8802 393e 058a 38be 7953 883c
00000010: 2cf3 353e ea2a 533e cc26 ccbd c7d4 4cbe
00000020: 6ea2 2a3e 5c32 93bd 1b21 723e c209 f8bd
00000030: 32a6 123e f727 213d 6bc1 dcbb f877 77be
00000040: 62a4 fcba 0e71 353e ec50 7f3e 5daa 653e
00000050: d491 833d cb34 803e fcdf a63d b0a8 1e3e
00000060: ee1b aebd f856 7bbe 2c78 03bd 1bef 80be
00000070: 6998 4b3e 8bb2 763e 18f0 783e 690e 18be
00000080: db1b 0f3e af2d 293d 0cd4 383e 8001 01bc
00000090: 1a36 143e 55ce ca3c a181 593e 3ae5 bc3d
000000a0: bfc6 3dbe 09ba 5fbe a991 07be ffc7 62bd
000000b0: ff9a 28be 1c31 513e 5fbc 133e a5b1 edbd
000000c0: 2cb9 d83c f4bd 1b3d b7f5 f73c e3be b33c
000000d0: f02c 30be 0a04 7d3b 5363 133e 882e 0cbe
000000e0: aff0 34bd 5157 8c3c 88a2 3fbd f8d1 5cbe
000000f0: 8d82 1e3d a8fa 17be 628c c4bd 52f2 0c3e
00000100: 399e 433e 9ef8 86bd 5c2f 0ebe c404 00be
00000110: 6e4e 7fbe d954 59be 0ee6 10be f943 20bd
00000120: 6942 adbd 6e00 133e 14d4 f13d 24b8 12be
00000130: b072 243e 7ab3 47be 62b7 72bc eab1 38be
00000140: bc1f c03d 2be8 5e3e faf7 1e3e 3305 123e
00000150: 360f 3ebe 20c7 26bc 9893 95bd 2da0 aa3d
00000160: 74e6 39be 8a3d 5e3d 031f 113e f002 56bd
00000170: 7046 18be 791d 133e dc6e 3f3e c005 5ebe
00000180: c763 83be c1a8 013e 9c07 1bbd 20be 4bbd
-0.092646256 0.18067372 -0.180214 0.016641365 0.17768544 0.20621839 -0.099683374 -0.20003043
0.16663525 -0.0718734 0.23645441 -0.12111236 0.14321211 0.039344754 -0.0067369244 -0.24166858
-0.0019275064 0.17718908 0.24933213 0.2242827 0.06424299 0.25040278 0.081481904 0.15494037
-0.08501421 -0.24544895 -0.032097027 -0.25182423 0.19882359 0.24091546 0.24310338 -0.14849247
0.1397547 0.041303333 0.1804964 -0.007873893 0.14473763 0.02475659 0.21240856 0.09223409
-0.18532847 -0.2184831 -0.13239159 -0.055366512 -0.16465376 0.2042889 0.14427327 -0.11606149
0.026455484 0.03802295 0.030268533 0.021941608 -0.17204642 0.0038607144 0.14393358 -0.13689625
-0.044174846 0.01713148 -0.04678586 -0.21564472 0.03869872 -0.14841712 -0.095970884 0.13764313
0.19103326 -0.06590389 -0.13885254 -0.12501818 -0.24932262 -0.21223773 -0.14150259 -0.039127324
-0.08459932 0.14355633 0.11808029 -0.14328057 0.16059375 -0.19502059 -0.01481423 -0.18036619
0.09381053 0.21768253 0.15524283 0.14259796 -0.1856049 -0.010179311 -0.07303542 0.08331332
-0.18154317 0.054257907 0.14171986 -0.052248895 -0.1487062 0.14366712 0.18694633 -0.21681881
-0.25662062 0.12662031 -0.037849054 -0.049741864

weight f4 [100]
00000000: c003 a03f 150c 773f 9bff 563f ea50 513f
00000010: f4cb 513f 3635 723f c9f2 663f 925c 903f
00000020: 3b17 b13f 3bcc 5b3f 4de3 853f 9945 813f
00000030: 6dec 7a3f 4028 573f 1203 ba3f 1544 8f3f
00000040: 5cc4 993f 1920 973f e41b a93f beec 403f
00000050: 7120 763f 0e6b 713f ee2a 713f d3a9 5c3f
00000060: 7c1b 7f3f f86f 8f3f 4e4b 4c3f 5555 5a3f
00000070: 66ba 9f3f f8af 873f dc6c 8e3f cab6 2f3f
00000080: 6b97 703f ee15 783f 872f 883f 0d4b 7c3f
00000090: 24fb 993f 454f 803f 1c49 973f a115 a33f
000000a0: fc8b a33f 7001 773f 1f15 a93f 039f 863f
000000b0: 7919 913f b217 743f e8bf 803f 9b25 7a3f
000000c0: 8d86 a13f 950c b33f d128 a33f bcdd 633f
000000d0: ef20 873f b7d3 753f d742 823f b135 8a3f
000000e0: 188b 8c3f c5e6 873f 0e8d 743f b773 5f3f
000000f0: 3001 813f 48d7 683f a375 8a3f 879c 433f
00000100: bbda 513f fa9e 6b3f 749c 853f a143 473f
00000110: b8fa 6e3f ddc8 8b3f b457 903f 6efd 8c3f
00000120: 7e59 5c3f b01d 6b3f 5270 773f b265 6d3f
00000130: a26d 723f 70c8 8d3f b49e 843f 389f 513f
00000140: e506 853f 8607 5d3f 54f6 963f d469 863f
00000150: aa24 973f b7c1 863f 151b 3e3f 92ae 4a3f
00000160: b983 873f 925c 8e3f 27fb 993f 9a33 ab3f
00000170: fcb1 933f 545e 923f c5b7 7b3f ea4c 8b3f
00000180: d7f8 5f3f bb4a 7d3f e253 583f ac62 4d3f
1.2501144 0.9650281 0.83983773 0.8176409 0.8195183 0.94612443 0.9021421 1.127825
1.3835214 0.85858506 1.0459992 1.0099365 0.9801701 0.8404579 1.4532187 1.1192652
1.2013049 1.180667 1.3211637 0.7536124 0.9614325 0.9430398 0.9420613 0.8619663
0.9965131 1.1206045 0.79802406 0.85286456 1.2478759 1.0600576 1.1126971 0.6863829
0.93981045 0.9690846 1.0639504 0.9855202 1.2029767 1.0024191 1.1819186 1.2740976
1.2777095 0.9648657 1.3209571 1.0517277 1.1335899 0.95348656 1.0058565 0.9771363
1.2619187 1.3988215 1.2746831 0.89010215 1.0556926 0.96026176 1.0176648 1.0797635
1.0979948 1.06173 0.9552773 0.8728594 1.0078487 0.90953493 1.081715 0.76410717
0.8197438 0.92039454 1.0438371 0.7783757 0.93351316 1.0920674 1.1276765 1.1014841
0.86074054 0.91842175 0.9665576 0.927333 0.94698536 1.1076794 1.0360932 0.81883574
1.0392729 0.86339605 1.1793923 1.0501046 1.1808064 1.0527867 0.74260074 0.79172623
1.0587074 1.1122 1.2029771 1.3375123 1.1538692 1.1435037 0.98327285 1.0882847
0.87489074 0.98942155 0.84502995 0.80228686

bias f4 [100]
00000000: ccb3 fbbd cbb7 023c 23b7 b9be 3bde a4bd
00000010: 86e6 78be a0f7 4f3c 3696 09be c098 9cbd
00000020: 4bf2 47bd 63d0 b8be 8896 b5be 5498 0dbf
00000030: 0b00 0ebe 6cb5 9fbe f778 a0bd 6d45 f7bc
00000040: 35ec 833d 2157 01be 17c8 e4bd 9642 d6be
00000050: 09a8 eebd f36f 34be 1e35 57be 410a fabe
00000060: f513 94be 5a6e 9bbc 3b0a 03bf 4937 98be
00000070: 7573 24be 170e e1bd 8f23 063e 4742 99be
00000080: 81e2 a9be fac0 bebe 5b15 233d 2f1d 09bd
00000090: 97e0 48be 5b2c f83d 19a6 a0bd 81b9 1e3c
000000a0: 2f02 1bbb 75da 90bd 938e 01bd 943f 23bd
000000b0: 3ee9 38be 5da3 d3be d7a6 09bf 935d 39be
000000c0: 3765 1fbe fd53 61bd 23b2 e03d 9aaf 6abe
000000d0: 8ed3 43be 8998 98be 97d6 91be 618a 00bf
000000e0: c5e8 d5bc efa3 a2be b23d a3be ae4f 6fbe
000000f0: 500f 7abe e811 babe 99be 62bd 6a08 e6be
00000100: d8d0 8cbe 47e2 babe 0e53 3dbe 2272 f6bd
00000110: 2d84 b6be fdbd 31be 9110 c53d 4e8f acbd
00000120: f594 08be d1bf e2be 0ae6 e1be cdec 66be
00000130: cb8d 96be 2f79 a3be bba8 6cbe 20f5 61be
00000140: 1ce0 a5bd c4fd f2be 558e 9ebe 6db2 9ebe
00000150: 2189 17bd bf9c 143d c962 e0be 2cda d0be
00000160: 212c 55be 6b39 a1be 6528 2cbe ca3f 39be
00000170: f641 18be e358 2dbe 7edb f0bd 7c2f 8dbd
00000180: cb07 2fbe f85d 72be 531a 0bbe e4f3 bcbe
-0.12290153 0.00797839 -0.36272535 -0.080501996 -0.24306688 0.012693316 -0.13436207 -0.07646322
-0.048815053 -0.36096486 -0.3546641 -0.5531056 -0.13867204 -0.311931 -0.07835572 -0.030184472
0.06441537 -0.12630893 -0.111709766 -0.41847676 -0.11653144 -0.1762083 -0.21016356 -0.48835948
-0.28921476 -0.018973518 -0.51187485 -0.2972968 -0.16059668 -0.109890155 0.13099502 -0.29933378
-0.3318062 -0.37256604 0.039815288 -0.033475097 -0.19616924 0.12117835 -0.078441806 0.009687782
-0.0023652425 -0.07072917 -0.03163011 -0.039855555 -0.18057725 -0.41335574 -0.537702 -0.18102102
-0.15565954 -0.055011738 0.10971477 -0.22918549 -0.1912367 -0.29803875 -0.28484032 -0.5021115
-0.02611197 -0.31765696 -0.31883007 -0.23370239 -0.24419904 -0.36341786 -0.05535755 -0.44928294
-0.27503085 -0.3650076 -0.18488714 -0.12033488 -0.35647717 -0.17357631 0.096223004 -0.08425771
-0.13338073 -0.4428697 -0.44120818 -0.2255127 -0.29405054 -0.31928393 -0.2311124 -0.22066164
-0.08099386 -0.47459233 -0.30967966 -0.30995503 -0.03699601 0.036282297 -0.43825367 -0.40791452
-0.20817615 -0.3148912 -0.16812284 -0.1809074 -0.14868912 -0.16928439 -0.11760615 -0.068938226
-0.17092817 -0.23668659 -0.1358426 -0.36904824

running_mean f4 [100]
00000000: 5ed1 d0bd 3a7e 983d 5e4c aebc 9fb0 81bc
00000010: e201 283e 809c e83d 0ce4 553d 879a 8ebc
00000020: 4caa bc3d 2417 b5be c4e9 a03e ea75 85be
00000030: fbe8 963e 329a 2b3d 9c21 1dbe 9a6e c1be
00000040: 1479 3dbe 7c54 9f3e ec1f 4d3e 0fe4 033f
00000050: f1bb 883e 1429 173f 8ee2 d93e 9e2d 8a3e
00000060: 715f ccbe d9d4 71be 32ac 333e cedf 82be
00000070: ed5b 253e 5767 753e 1264 b63e 123b bc3c
00000080: f659 b73e 74ca 553d e223 9f3e e153 1abe
00000090: d988 1c3e 14e7 153e bfea 013f b427 353e
000000a0: 3018 85ba 8e5a e7be 5025 58be 8deb db3d
000000b0: e6fe 643d 6c8e 103f d725 6b3e b8ab 3ebd
000000c0: b76d 3dbe 0e97 4abe 934b 0dbe d645 1abe
000000d0: f011 3dbd ccaa 00be 5756 df3e 53bc 97bd
000000e0: c0b6 6a3c 1d9a 38bd 14b8 9b3d b16a f3bd
000000f0: c207 9cbe 743e 14be 944b 2f3d a61e dcbd
00000100: 7b47 b03d b684 9a3e bde2 f5bd bb77 a8bc
00000110: 16b7 38bb 746b 78be 4be8 67be 6516 44bd
00000120: 0bbf 01bf 8acc 4f3e 76a6 5b3e b376 35bd
00000130: 092c f83e 5b71 39be 860f 5d3d f8fc 6bbe
00000140: f887 3fbd 4ae2 183e c350 423e 23ac dc3e
00000150: 07a6 fabd 719a a4be 7639 f8bd 9914 a93c
00000160: bb57 093d f998 19be aa63 693e 355c f33d
00000170: 955f 61be 4916 b03d f2f8 143e 5aab b0be
00000180: 895f bebe 15d6 653e d4a5 803e 77c8 e23d
-0.101961836 0.07445951 -0.02127665 -0.01583129 0.16406968 0.11357975 0.052219436 -0.017407669
0.09212169 -0.35369217 0.3142835 -0.26066524 0.29474625 0.0418951 -0.15344852 -0.37779695
-0.18503219 0.31119144 0.20031708 0.51519865 0.26705888 0.59047055 0.4255566 0.26987928
-0.39916566 -0.23616351 0.17546156 -0.25561374 0.16148348 0.23965202 0.35623223 0.022977386
0.35810822 0.052195027 0.31082064 -0.1507106 0.15286578 0.1463893 0.5074882 0.17690927
-0.0010154303 -0.45186275 -0.21107984 0.10738287 0.055907153 0.5646732 0.22963654 -0.046550483
-0.18498884 -0.19784185 -0.1379836 -0.15065703 -0.046159685 -0.12565154 0.4362056 -0.07408967
0.014325798 -0.04506885 0.076034695 -0.11885584 -0.3047467 -0.14476949 0.042796686 -0.10748033
0.08607384 0.30179375 -0.120061375 -0.020564904 -0.00281853 -0.2425974 -0.22647206 -0.04787292
-0.50682133 0.20292869 0.21450219 -0.044302654 0.48471096 -0.18109648 0.053969882 -0.23045719
-0.04676053 0.14930072 0.1897612 0.4310008 -0.122386985 -0.3214908 -0.12120335 0.020639705
0.033530932 -0.1499976 0.22791925 0.118828215 -0.22009118 0.085980006 0.1454809 -0.3450573
-0.37182263 0.22444947 0.25126517 0.11073392

running_var f4 [100]
00000000: 8b69 913f c629 123f 66a3 fd3e 8daf 513f
00000010: 23ee 223f 0a3e 4b3f 9ea9 f13e d9eb 543f
00000020: c012 9e3f 2cfe 0c3f ba91 013f e978 103f
00000030: 0b00 e03e 04e2 583f 295a 053f 932c ec3e
00000040: e323 073f 7735 5b3f 5534 ec3e 2875 dc3e
00000050: eddd a53e 0acb c33e 3121 b03e c48f 033f
00000060: 5f38 113f de7f d63f 1796 4a3f 6a83 113f
00000070: 94a0 ff3e 9cad 613f 942c 233f d38c 643f
00000080: 0ab6 d53e 9a36 433f f5cf 363f 14e8 f63e
00000090: 1662 593f a8cf 813f 33e5 283f 626e 953f
000000a0: aecb 683f 7d03 353f 2e8b 583f 70ac 2c3f
000000b0: d3d2 8b3e 22c2 e43e 0c60 1f3f 96ae 153f
000000c0: 91dc 633f c72e 253f 71b1 813f 9a4e 663f
000000d0: 981d c83e 0471 c63e 0e60 153f d402 123f
000000e0: a3a4 4f3f 413c 0c3f ccfb 9b3e 57c5 e73e
000000f0: e818 cb3e c519 fa3e 5faa a03f d747 183f
00000100: 399f 2b3f b089 ec3e 7237 3f3f 6647 883f
00000110: 9fa1 073f 6762 8b3f 445c e23e 34bf 043f
00000120: c9f4 ce3e da48 f33e d024 a73e d2fa 993e
00000130: dc7c ea3e 8553 bc3e 9e9b 2a3f 0fec 823f
00000140: da0a 583f 1d38 263f f8e7 3f3f 43bd ab3e
00000150: eabf 8a3f 3d73 023f 57bf 773f 3c11 893f
00000160: 04e5 a83e c071 b23e 21a6 4b3f f3a9 c93f
00000170: c010 3e3f 5c54 4e3f e059 053f 0693 8d3f
00000180: 8eab f93e ff06 1d3f 756a 773f b060 893f
1.1360334 0.5709499 0.49538726 0.81908494 0.6364462 0.7939154 0.4719972 0.83172375
1.2349472 0.55075336 0.50612986 0.56434494 0.43750033 0.8471987 0.520907 0.46127757
0.52789134 0.85628456 0.46133676 0.43058133 0.32395878 0.38240844 0.34400323 0.51391244
0.5672664 1.6757772 0.7913527 0.56841147 0.499272 0.8815553 0.63739896 0.8927738
0.41740447 0.7625519 0.7141107 0.48223937 0.8491529 1.0141497 0.6597473 1.1674311
0.9093579 0.7070845 0.8458737 0.6745062 0.27309284 0.44679362 0.6225593 0.5846952
0.8900843 0.645245 1.0132276 0.89963686 0.39085078 0.387581 0.5834969 0.57035565
0.8111059 0.5477944 0.30465543 0.45267746 0.3966744 0.48847786 1.2551993 0.5948462
0.6703983 0.46198797 0.7469398 1.0646789 0.5298099 1.0889405 0.44211018 0.5185425
0.4042113 0.4751652 0.32645273 0.30074173 0.45798385 0.3678247 0.66643703 1.0228289
0.8439156 0.6492937 0.7496333 0.33542833 1.0839818 0.5095709 0.96776336 1.0708385
0.32987225 0.3485241 0.7955037 1.5754989 0.7424431 0.8059747 0.52090263 1.1060493
0.48763698 0.613388 0.96646816 1.0732632

weight f4 [50, 100]
00000000: 2acd b43b d0ce 21bc 09f8 613d d449 873b
00000010: 7693 36be aa1b 90bd 08dd c73d 9f04 cf3b
00000020: 1a04 5bbe bb69 f5bd 7bbc 90be 2c24 5c3e
00000030: 2fc8 13be e156 d03d 425d 86be d5be fabc
00000040: 14b5 c8be dc0b fd3c b2f4 93be 6d08 41bd
00000050: 98d6 3abe 892a a2bd 4bb3 413e dcad 893e
00000060: d264 8abe bf4c 25be ca57 993d 7786 123e
00000070: bd33 f9bd 14f3 acbe 28e4 74be dc3b ca3d
00000080: 07cb 513e d5c9 d2bd 9035 11bd 8b24 75be
00000090: 27c4 f1bc f926 00be c1cd b5be 1318 093d
000000a0: 82b3 633e a76e e1be 38aa 30bc 3a3b 5fbd
000000b0: dd33 6b3e 5aaf 253e 3481 183e e7a6 063e
000000c0: 79f9 9abe 1fc3 80bd bb35 76bd 0ff1 8ebe
000000d0: b2b3 9dbc 1877 813e 30cf fbbd 5b7e 37bd
000000e0: 8e2a 8ebe ae57 cabd 7c2a 45be 2e4e d6ba
000000f0: be38 9e3d 5c62 503e fce4 8bbb 570d 163e
00000100: 542b a0bb 78ad 093e 887c abbd 61fa e13d
00000110: 5c31 ffbc 83f1 69bd 4407 aebe 3b3d 7cbe
00000120: 656c 27be f166 dd3d 52ed 25be 9d43 f53d
00000130: 25df 223d a2ff 383d df0b b6be 5eda 27bd
00000140: 543f 82be 0de5 433e c6cd 0e3d 8514 2bbe
00000150: c79c 16be 931e 0abe 5198 cabd 82c4 593e
00000160: 27a2 c53d 1200 babe ab74 a93d b1eb a8bd
00000170: 8915 1bbe 4c04 c6bc d75b 1ebe f0bd 2fbb
00000180: 2573 303e 1103 423d 630a b2bd 256e f83d
00000190: eb77 c7be 54bc 31be 6c89 fdbc 8a03 fb3d
000001a0: a7b0 ca3c a25e 1abe c5e0 3b3d 4a64 e3be
000001b0: 9180 2ebe f9fe f1bc d76b 77bd 527f 8b3d
000001c0: cf66 d5bd 8a79 2abd a603 51bc 66cb 5dbe
000001d0: 7ffc 1bbd eb1e 18be d4ea 64be 218b e7bc
000001e0: b8b5 ca3d 25ee e13d 71b1 db3d 138b 423e
000001f0: e69f 2b3e a61e babd a44b 643d 9de8 99bd
00000200: 1e62 183e 30d6 fdbc 1583 86bd 2e15 2d3d
00000210: 1b46 793d eaeb f9bd 0e36 33be ff3c eebd
00000220: 50e8 95be 77b0 3bbe aea4 a3be 88d7 b1be
00000230: f7f4 e83d cf9a e43d b01e 89be af7f 143d
00000240: f2c3 b4be af96 343e e756 7b3e 958e efbd
00000250: 722f 913d b7c0 353d e52c 0cbf d9d0 823e
00000260: aae5 2d3e 794c 7c3b 9c9f 90be 11e3 efbe
00000270: 6862 b2bd a110 683e 8a2f 0b3d b342 ae3d
00000280: 3a7a 9bbe 0e65 483d 1737 edbe 4dcb 45bc
00000290: b8ba 07be 5187 283e d664 c5be 56e9 683d
000002a0: 27ac 76bc bb05 81bd c61d 083d 305c 0dbe
000002b0: f7c6 65bc 7b9f 0d3e 6858 d03d 2dca 183d
000002c0: 34d8 0f3e 38d2 833d 0d03 98bc 46c2 b3bc
000002d0: 233e 6cbe 2377 0a3e cee9 dbbe 27d3 7d3d
000002e0: 8abd 23bd c5b0 d73c 0659 7bbb 9e47 383e
000002f0: 40ec a83d add0 bebe 25a6 81be 8ca9 23bf
00000300: 74d3 2fbe 5c5a d6be a7fe 0bbd 6467 46be
00000310: 64ea d5bd f56c 39be 6582 9cbc fd15 543d
00000320: 77e0 0b3e 3906 e9bd ddc5 3a3e d199 1fbe
00000330: 69b1 a2bd d985 cbbd 632d 46be 6aaa 9f3d
00000340: 31c4 283e 1624 37bd ce42 843c 7e40 433e
00000350: e996 9c3d bc7a 08be 554b 543d 4172 bf3b
00000360: 835a 0bbf d297 90be 381d 4d3e 95b4 a7bd
00000370: 8123 193e 4bdf 3ebd e027 57be 0d21 aebc
00000380: e9df 2fbe 64cc 8c3d 8238 11be d4d1 303e
00000390: 9959 d53d 1a5e 89bd 6e94 57bd 1f40 973d
000003a0: 250a 5abe 2d69 e9bd 90a9 2abc 9b3e 863d
000003b0: ffcb 3c3e 86e2 6bbd 24b3 423a 644c 113e
000003c0: bbe2 15be 54de efbe 3154 9d3e d3b0 6abd
000003d0: 75c9 dfbb 95cb 02be 0ff1 1fbd a272 04be
000003e0: cc8d 013d fc3e 18be 7cfb 80be cdf3 5b3e
000003f0: 86a6 8bbb 673a e83d 2945 413e ba5c 1f3e
0.0055176215 -0.009875968 0.055168185 0.004128674 -0.1782969 -0.070365265 0.09758955 0.0063176895
-0.21388283 -0.11983057 -0.282688 0.21498173 -0.14431833 0.10172821 -0.26243025 -0.030608574
-0.39200652 0.030889444 -0.28897625 -0.047127176 -0.18245924 -0.07918269 0.18916051 0.26890457
-0.27030045 -0.16142558 0.074874476 0.14309107 -0.121680714 -0.33779204 -0.2391516 0.098746985
0.20487605 -0.10292403 -0.03545147 -0.23939721 -0.029512478 -0.12514867 -0.3550854 0.033470225
0.22236446 -0.44029734 -0.010782771 -0.054499842 0.22969003 0.16180173 0.14893037 0.13149606
-0.30268458 -0.062872164 -0.060109835 -0.27918288 -0.019250724 0.25286174 -0.12295377 -0.044798236
-0.27766842 -0.09880005 -0.19254488 -0.0016350204 0.077256665 0.20350021 -0.0042692404 0.14653526
-0.0048879776 0.1344508 -0.08373362 0.11034084 -0.031151466 -0.05711509 -0.33989918 -0.24632733
-0.16349943 0.1081065 -0.16203812 0.11975787 0.03976359 0.045165665 -0.35555932 -0.040979736
-0.2543894 0.19130345 0.03486421 -0.16707046 -0.14708243 -0.13488226 -0.09892333 0.21266368
0.09650069 -0.3632818 0.08274206 -0.082480796 -0.15144934 -0.02417197 -0.15464722 -0.0026816092
0.17231424 0.047366206 -0.08693387 0.121303834 -0.38958678 -0.17356998 -0.030949317 0.122565344
0.024742438 -0.15075162 0.045868654 -0.44412452 -0.17041232 -0.029540526 -0.06040558 0.06811394
-0.1042 -0.041619815 -0.0127572175 -0.21659622 -0.038082596 -0.14855544 -0.22355205 -0.028264584
0.09897941 0.110317506 0.10727204 0.18998365 0.16760215 -0.09087877 0.0557362 -0.075150706
0.14881179 -0.030985922 -0.06567971 0.042256527 0.060857873 -0.122032 -0.17501089 -0.11632728
-0.29278803 -0.18329035 -0.31961578 -0.3473475 0.11374848 0.1116234 -0.26781225 0.03625458
-0.35305744 0.17635606 0.2454487 -0.11697117 0.070891276 0.04437324 -0.54756004 0.25549963
0.16982141 0.003849773 -0.28246772 -0.46852925 -0.08710176 0.22662593 0.033980884 0.085088156
-0.3036669 0.0489245 -0.46331093 -0.012072396 -0.13254821 0.16457869 -0.38553494 0.05686315
-0.015055693 -0.06299921 0.03323152 -0.13804698 -0.014024488 0.13830368 0.10173112 0.037302185
0.14047319 0.064365804 -0.018556142 -0.021943223 -0.23070578 0.1352201 -0.42951816 0.06196895
-0.03997568 0.026329407 -0.0038352623 0.1799607 0.08248186 -0.37268582 -0.2532207 -0.63930583
-0.17170507 -0.41865814 -0.034178402 -0.19375378 -0.10445097 -0.1810797 -0.019105146 0.051778782
0.13659845 -0.1137814 0.18239541 -0.1558602 -0.079439946 -0.09937639 -0.19353251 0.07796176
0.16481091 -0.04471215 0.016145136 0.1906757 0.07645971 -0.1332807 0.051829655 0.0058424775
-0.54434985 -0.2824083 0.20030677 -0.0818874 0.1495495 -0.046599668 -0.21011305 -0.021255994
-0.17175259 0.06874922 -0.14181712 0.17267543 0.1041748 -0.067074016 -0.052631788 0.07385277
-0.21292932 -0.11397014 -0.010416403 0.0655491 0.18437193 -0.057589076 0.0007427207 0.14189297
-0.14637272 -0.4684931 0.30728295 -0.05729754 -0.0068294355 -0.12772973 -0.03904825 -0.12934354
0.03162937 -0.14867777 -0.25191867 0.21479721 -0.0042617945 0.11339264 0.18874039 0.15562716

bias f4 [50]
00000000: b980 3fbd 2751 9abc 33f7 a2bd 3683 8d3d
00000010: 79e0 49ba 3643 e339 3976 cb3d dc41 4d3d
00000020: 9449 a0bc e2ce 5d3d 04c9 993d 3e84 18bc
00000030: ad26 6a3c 6ea2 9bbd 0e23 b0ba 9c7f f63c
00000040: 6870 7ebb 67bf 033d cc94 513c c7e7 193d
00000050: e8ea cabd 1e75 2cbd 5ce2 c2bd 4808 babd
00000060: 25f3 3bbc 3047 a0bc 4a54 aabd 3956 9fbd
00000070: 0b14 033c bc4e 0f3c 0be6 993c 4b5e 033d
00000080: 32b5 c93d cc61 a73d 13ff 2fbc 8925 c6bd
00000090: b781 95bd bea4 c13b 6e3b cd3b e8f9 96bd
000000a0: 7406 a5bd 744d f2bc f566 3fbb 5845 533d
000000b0: 515e e7bc 2f49 f5bc 9bc1 3d3d 24ca 48bd
000000c0: 1c3c 613d 0b11 693d
-0.04675362 -0.018837525 -0.07957306 0.06909792 -0.00077009905 0.0004334689 0.099346586 0.050111637
-0.019566335 0.054152377 0.07509044 -0.009308873 0.014291448 -0.075993404 -0.0013438181 0.030090146
-0.0038824324 0.032164957 0.012791824 0.037574556 -0.09908086 -0.04210388 -0.09515831 -0.09083611
-0.011471544 -0.019565195 -0.08316858 -0.077801175 0.008000384 0.008746799 0.01878645 0.032072347
0.098490134 0.0817295 -0.010741967 -0.09675128 -0.07300132 0.0059095314 0.006263188 -0.073718846
-0.080578715 -0.029577948 -0.0029205654 0.051579803 -0.028243216 -0.029942123 0.046327215 -0.0490209
0.054988965 0.05690102

weight f4 [50]
00000000: bb4b 143f a2a2 123f f2b0 8a3e 003b 1e3f
00000010: b175 9e3e 7ee7 a43e 6acc 713e 13b1 f43e
00000020: 5d6a 1d3f e718 1d3f 3551 d33e 953c 303e
00000030: 7a7d 173f 16a8 f13e e7e9 c73e c7a7 453e
00000040: 6748 133f a7ee 133f fd28 ca3e 340e 0c3f
00000050: 7abb 0d3f f2e4 7b3e 9eeb 0f3f abf4 753e
00000060: f9c0 183f 67a5 173f 0c09 ec3e 7924 833e
00000070: 0c8a b93e 4dce 783e f84f 973e 3916 a63e
00000080: 7e9d a63e 24f7 3f3e 1df0 213f ca5a 713e
00000090: c572 db3e 0c9c 273f abf1 103f 5a09 103f
000000a0: c45b 083f dfd8 a13e ad6e af3e 42f2 bd3e
000000b0: d662 513e f5c2 d53e def3 193f ef61 df3e
000000c0: 8ae4 553e 1870 b73e
0.57928056 0.5727941 0.27088124 0.61808777 0.30949166 0.32207865 0.23613134 0.47791347
0.6149042 0.6136612 0.41272894 0.1721061 0.5917584 0.47198552 0.3904564 0.19302283
0.5753235 0.5778603 0.39484397 0.5470917 0.5536419 0.24599054 0.562189 0.24019115
0.5966945 0.5923676 0.46100652 0.25613764 0.36238134 0.24297448 0.295532 0.3243883
0.32542032 0.1874662 0.6325701 0.2356979 0.42861 0.65472484 0.56618756 0.5626427
0.53265023 0.31610772 0.34264126 0.3709889 0.20447859 0.41750303 0.60137737 0.43629405
0.20887962 0.35827708

bias f4 [50]
00000000: 8551 9dbe 5f24 63be cca7 cfbe 8d9d 40be
00000010: 3c08 ebbe d6ea 09bf 6439 04bf 3922 a2be
00000020: f07c 6ebe bd4f b8be e681 13be 7c91 1abf
00000030: ab6a cbbe 91d2 33be aa87 21bc d1c6 33bf
00000040: d430 91be 593e aabe 22cf 38be 74c0 9fbe
00000050: adb0 94be 8baf 1ebf f78e 9fbe 2c4f bcbe
00000060: 8ffc 88be 5e84 97be 3dab 51be 29b5 0cbf
00000070: 0c0d 02bf 3ca1 c3be 89c7 12bf 3c65 c0be
00000080: fb7d fdbe 865b 18bf c828 b9be 11d8 18bf
00000090: 3757 0dbe 5271 7cbe 8ed2 86be 0422 e2be
000000a0: 69c7 38be ad86 2fbf 6405 12bf bdfd 26be
000000b0: 4fea 1bbf 8b69 a4bd a6fb 8bbe 7067 dfbe
000000c0: 721f 0dbf f667 b2be
-0.30726257 -0.22181843 -0.40557706 -0.18810101 -0.4590472 -0.53873956 -0.5165007 -0.31666735
-0.23289847 -0.35998335 -0.14405021 -0.6037824 -0.3972982 -0.17560793 -0.009859005 -0.70225245
-0.28357565 -0.33250692 -0.18047765 -0.31201518 -0.29041043 -0.6198661 -0.3116376 -0.36779153
-0.26755187 -0.29593176 -0.20475478 -0.5496393 -0.5080116 -0.3820895 -0.57335716 -0.37577236
-0.49510178 -0.59514654 -0.36163926 -0.5970469 -0.13802801 -0.24652603 -0.26332515 -0.44166577
-0.18044819 -0.68564874 -0.57039475 -0.16307731 -0.609044 -0.08027943 -0.2734043 -0.43633604
-0.55126107 -0.3484494

running_mean f4 [50]
00000000: 9ba6 1bc0 22f3 50c0 9ca2 1fbf 1ce1 18c0
00000010: 8839 60bf 1bec 033f 021c d9bf 86ea d4bf
00000020: 9859 20c0 3d08 10c0 fb94 453f 2c7d 3abf
00000030: 5169 dabf 5b97 92bf 27bf 53bd 53ca c13e
00000040: 3b35 1bc0 86c2 20c0 2e53 253f bf4b d6bf
00000050: 1418 64bf 8bbb e4bf 5967 36c0 9440 bb3f
00000060: be25 2dc0 59c6 0fc0 4d75 47c0 717b d43d
00000070: f0ca aa3f 69c5 9bbf 0ecd cb3f b230 b03f
00000080: 6016 4c3f 2dbe 133e a372 19c0 cd28 913f
00000090: c04e 97bf c2e6 0bc0 664d 21c0 3080 bbbf
000000a0: eb82 23c0 984c 8abe 5e35 e83e 3012 473f
000000b0: 8bf2 bd3f 6641 76bf 6f3f 30c0 1878 f1bf
000000c0: 54f0 943e 2660 f6be
-2.4320438 -3.2648396 -0.623575 -2.3887396 -0.87587786 0.51532143 -1.6961672 -1.6634071
-2.5054684 -2.2505028 0.7718045 -0.7284725 -1.706339 -1.145244 -0.05169597 0.37849674
-2.425124 -2.5118728 0.6458005 -1.6741866 -0.8909924 -1.7869734 -2.8500578 1.4629083
-2.7054286 -2.2464812 -3.1165345 0.10375107 1.3343182 -1.216962 1.5921953 1.3764861
0.7972164 0.14428015 -2.3976219 1.1340576 -1.1820908 -2.1859593 -2.520349 -1.4648495
-2.5548656 -0.2701156 0.45353216 0.77762127 1.4839643 -0.9619354 -2.7538717 -1.8864775
0.29089606 -0.4812023

running_var f4 [50]
00000000: a955 d240 21da 6241 dc3f 4040 493b 0b41
00000010: bc16 6840 65cc 9a40 5373 5640 e85f 5940
00000020: c504 c540 dcdf d440 2ed7 8b40 f674 b83f
00000030: 5496 5140 1825 2a40 8924 9740 4932 9e40
00000040: 3b8c 0341 5230 2841 c9be 3f40 42f6 6540
00000050: 7068 a640 6841 f33f 05d4 1741 e51d ab40
00000060: 1c48 1441 32c5 dc40 aafc 6741 f698 9c40
00000070: d4f7 0f40 b105 a740 b9c9 d240 b6d1 3240
00000080: 9ca0 2140 ac6c 3640 f351 ad40 504b 4440
00000090: 61ab 3640 a2bd 1f41 c156 1341 e3a5 9640
000000a0: b7a7 e840 73d7 5a40 4302 4f40 f02c 5240
000000b0: 788b 9e40 8739 6d40 cbe5 3641 52c0 0541
000000c0: cc22 3c40 c739 0b40
6.5729566 14.178254 3.0038977 8.701974 3.6263876 4.8374505 3.3507888 3.3964787
6.156832 6.6523266 4.370017 1.4410694 3.2748003 2.658514 4.72321 4.9436383
8.221736 10.511797 2.9960196 3.5931554 5.2002487 1.9004335 9.489263 5.347399
9.267605 6.8990717 14.499186 4.893672 2.2495012 5.2194448 6.5871243 2.7940497
2.5254278 2.8503828 5.4162536 3.0670967 2.8542101 9.983797 9.20868 4.70775
7.270473 3.4194 3.234513 3.2839928 4.954525 3.7066362 11.431102 8.359453
2.9396238 2.1754014

weight f4 [1, 50]
00000000: cafc 773d 5956 d33c 83e7 34bc c58e 443d
00000010: b188 13bd a061 bc3d 400e 7a3b 4606 083d
00000020: 4c23 6e3d 8951 373d 7a31 aebc 8053 c03c
00000030: a603 753d adca 08bd 5622 c4bc fbbe 51bc
00000040: ddc7 c03c 8d4f 243d 59ba b4bc d2c8 e83c
00000050: 95bd 4c3d e1be debc 7a71 ac3c e553 31bd
00000060: e58f 1e3d 60b7 e83c 8d42 f33c 7528 ab3c
00000070: dea6 c3bc e08b f4bb b4dc 6e3d d653 1bbd
00000080: dcf9 d6bc 239a e03b 04f8 133d c1d6 e3bc
00000090: b754 1bbd 11da 203d a9df cd3c b339 923d
000000a0: 0be1 ed3c 33e6 d13d 18ba 98bd 1a63 e2bc
000000b0: 8241 caba edcb febc d5fc 113d d50e b5bd
000000c0: d9df 903b 53c3 f8bc
0.060543813 0.02579801 -0.011041525 0.047987718 -0.03601903 0.09198308 0.0038155466 0.033209108
0.05813913 0.044755492 -0.021263827 0.023477316 0.059817933 -0.03339641 -0.023942154 -0.012801881
0.023532802 0.040114928 -0.022061514 0.028416071 0.049985487 -0.027190628 0.021050204 -0.0432929
0.038711447 0.028407753 0.02969482 0.020893315 -0.02388328 -0.0074629635 0.058315948 -0.03792175
-0.02624219 0.006854312 0.036125198 -0.027812364 -0.037922587 0.039270464 0.025131064 0.071399115
0.029037973 0.10248985 -0.074573696 -0.027635146 -0.00154309 -0.031103099 0.03564151 -0.088407196
0.004421216 -0.030366575
