04-modeling/deep_learning/models/NHLnet.pth (torch, 92404 bytes, 7 tensors)

weight f4 [100, 15]
0	0xbd2f4fed	-0.042800833
1	0xbe9a7390	-0.30166292
2	0xbe1c85a6	-0.15285358
3	0x3e3717fc	0.17880243
4	0x3e1c4c7e	0.15263554
5	0x3dc3123d	0.09524963
6	0xbdef1f22	-0.1167586
7	0x3e7feaa5	0.24991854
8	0xbe314db6	-0.173148
9	0xbe6154f7	-0.22005068
10	0xbd30f3cb	-0.04320125
11	0x3e85f257	0.26161453
12	0x3e4b5471	0.1985643
13	0x3e14fcd9	0.14549579
14	0xbd2da86c	-0.042396948
15	0xbd23b1be	-0.03996443
16	0x3e04db6f	0.12974332
17	0x3e295c3b	0.1653909
18	0x3d836e4a	0.0641752
19	0xba3610f2	-0.0006945274
20	0x3e675002	0.22589114
21	0xbdee26f7	-0.11628526
22	0x3e157ce2	0.1459842
23	0xbe401567	-0.18758164
24	0x3d97fddf	0.07421469
25	0x3dd83e9d	0.105588175
26	0x3e30d076	0.17267022
27	0xbc54dc8c	-0.012992036
28	0x3e51095c	0.20413727
29	0xbe103b9a	-0.14085236
30	0x3e45d939	0.19321145
31	0x3e88f28e	0.26747555
32	0x3da063c6	0.0783153
33	0x3c54c5e9	0.012986639
34	0xbccd735c	-0.025079422
35	0x3dc512ef	0.09622752
36	0xbdbd1cc4	-0.09234002
37	0x3cd4ea68	0.02599068
38	0x3df7564e	0.12077008
39	0x3b96e5e8	0.0046050437
40	0xbda3bd4d	-0.07995091
41	0x3e3b5a43	0.18296151
42	0xbcb18509	-0.021669881
43	0xbdd73172	-0.10507478
44	0x3e7f08f8	0.24905765
45	0xbe2952b4	-0.16535455
46	0x3cdf003e	0.027221795
47	0xbd6d0a31	-0.057871047
48	0x3ca6dfb7	0.020370347
49	0x3cbc7726	0.023006033
50	0x3dfa3b91	0.12218393
51	0xbe4714f1	-0.19441582
52	0xbe2113fc	-0.1573028
53	0xbe44cdf6	-0.19219193
54	0x3e831fc5	0.25610176
55	0xbdf5f269	-0.12009127
56	0x3dd3cd63	0.10341909
57	0x3dc07a39	0.09398312
58	0xbe02e024	-0.12780815
59	0x3d7681af	0.06018227
60	0xbde6eafc	-0.112752885
61	0xbe08376c	-0.13302392
62	0x3e5dd72c	0.21664113
63	0x3e24a417	0.1607822
64	0x3d173fea	0.036926188
65	0x3e7222ab	0.23646037
66	0x3df4187a	0.11918731
67	0x3e4efb30	0.20213008
68	0xbcb67969	-0.02227469
69	0x3dafb4e7	0.08579426
70	0x3e3e1dd1	0.18566062
71	0x3e839030	0.25695944
72	0x3e2a385d	0.16623063
73	0xbe1932a7	-0.14960729
74	0xbdbc6544	-0.091990024
75	0x3e4e6349	0.20155062
76	0x3e260b9b	0.16215365
77	0x3e1d1055	0.15338261
78	0xbe009d17	-0.12559925
79	0xbdde475c	-0.108534545
80	0xbdbf07e0	-0.09327674
81	0x3e2d2edf	0.16912411
82	0x3e64828f	0.22315429
83	0x3d7b3d77	0.061337914
84	0x3dab5185	0.08365158
85	0xbc8dd8d3	-0.017315304
86	0x3e7c9fa0	0.24670267
87	0xbe44d66f	-0.19222425
88	0x3e0584d4	0.13038951
89	0x3e4cdb7a	0.20005599
90	0xbd926439	-0.07148022
91	0xbceb4a8e	-0.028722074
92	0xbe1d3fad	-0.15356322
93	0x3cd6955b	0.026194265
94	0x3e265e5c	0.16246933
95	0xbccbd49d	-0.024881655
96	0xbe821ec3	-0.25414094
97	0x3e108a0a	0.14115158
98	0xbe28729e	-0.16449973
99	0xbde0818c	-0.10962209
100	0x3c5e5963	0.013571116
101	0xbe66f73e	-0.22555253
102	0x3de9f126	0.114229485
103	0x3e887eee	0.2665934
104	0xbc270d7d	-0.010196087
105	0x3dc17b5b	0.09447356
106	0x3c75ff9f	0.015014558
107	0x3e49e5d8	0.19716585
108	0xbd3d17d2	-0.046165295
109	0x3e1f159f	0.15535592
110	0x3e306eca	0.17229763
111	0xbe0c980e	-0.1372988
112	0x3e137cd0	0.14403081
113	0xbe67c34a	-0.2263309
114	0xbe92c392	-0.28664833
115	0x3e187cdf	0.14891385
116	0xba9ea70d	-0.0012104228
117	0x3dff98b1	0.124802954
118	0xbcf0f8a5	-0.029415438
119	0x3c281fc1	0.010261477
120	0x3de1f04b	0.1103216
121	0x3e174301	0.14771654
122	0xbdf798d8	-0.120896995
123	0xbcd3e23c	-0.025864713
124	0x3e019687	0.12655078
125	0x3dba6578	0.09101385
126	0xbd32dc19	-0.043666933
127	0x3e209581	0.15682031
128	0x3e00f6af	0.12594102
129	0x3e83c22f	0.25734088
130	0xbe20f0e0	-0.15716887
131	0x3e535136	0.20636448
132	0x3e43219d	0.19055791
133	0xbd69dc6d	-0.05709498
134	0xbe05de76	-0.13073143
135	0x3dcfa176	0.10138218
136	0xbe4c1929	-0.19931473
137	0xbdca1d69	-0.09868891
138	0xbd2835ba	-0.041066863
139	0x3e0f4d24	0.1399427
140	0x3de11b92	0.10991587
141	0xbe12d83c	-0.143403
142	0x3e13b492	0.14424351
143	0x3dd707fe	0.10499571
144	0x3e3b0ddf	0.1826701
145	0xbd050ff0	-0.032485902
146	0x3df1b49d	0.118020274
147	0x3e808966	0.25104827
148	0x3d4d6bbe	0.05015158
149	0xbe218384	-0.15772825
150	0x3dc0c683	0.09412863
151	0xbe1e833a	-0.15479746
152	0xbe5a2284	-0.21302229
153	0xbea1a355	-0.31569925
154	0xbdc650d5	-0.09683386
155	0xbd4bd4dc	-0.049763545
156	0xbe0abfd9	-0.13549747
157	0x3d40cc7f	0.047070023
158	0xbe1d5c63	-0.15367274
159	0x3e2efdbb	0.17088978
160	0x3e103cc8	0.14085686
161	0xbe177f3e	-0.14794633
162	0xbca3ef89	-0.02001168
163	0x3d7717cf	0.06032544
164	0xbe128bac	-0.14311093
165	0xbe8b1ea6	-0.2717182
166	0x3bb5037e	0.005524098
167	0xbe105114	-0.14093429
168	0x3d381776	0.04494425
169	0x3c1eabd5	0.009684523
170	0x3c9ed433	0.019388294
171	0xbe3972eb	-0.18110244
172	0x3e75dc5e	0.24009845
173	0xbe6106a3	-0.21975188
174	0xbde718fb	-0.112840615
175	0x3d66c6c0	0.056341887
176	0x3e6c0e76	0.23052391
177	0xbd39b93f	-0.04534268
178	0x3e0380e9	0.12842144
179	0x3db5e72b	0.088819824
180	0x3e02f9ee	0.12790653
181	0x3d7a67a4	0.061133996
182	0xbe80934d	-0.25112382
183	0x3e0a180c	0.13485736
184	0x3e4a4035	0.19751056
185	0xbe042c04	-0.12907416
186	0x3e64e35d	0.22352357
187	0xbe1ee4b5	-0.15516932
188	0xbe7c2124	-0.24622017
189	0x3e443a4b	0.19162862
190	0xbe6457bc	-0.22299093
191	0xbd0ed752	-0.034873314
192	0xbcd799ee	-0.026318517
193	0x3e2501a9	0.16113915
194	0xbe712923	-0.23550849
195	0xbbd43573	-0.006476098
196	0x3e731e21	0.23741962
197	0xbe097490	-0.13423371
198	0xbd850139	-0.06494374
199	0xbd171ab6	-0.036890708
200	0xbcf49a06	-0.0298586
201	0x3dd6ef63	0.10494878
202	0x3cf5d7ef	0.030010192
203	0x3c1ad0fe	0.009449242
204	0x3c6a3b1e	0.014296321
205	0xbe5d76ba	-0.21627322
206	0xbd2cb1bc	-0.04216169
207	0x3e355f8b	0.17712228
208	0xbdcb54ae	-0.09928261
209	0x3caf4d16	0.021399062
210	0x3e1c86e2	0.15285829
211	0xbde70d02	-0.11281778
212	0x3db0ca43	0.08632328
213	0xbe1b29d7	-0.1515268
214	0x3cb47a34	0.022030927
215	0x3d9cbb93	0.076529644
216	0xbe0a5c74	-0.1351183
217	0xbe17a605	-0.14809425
218	0x3cc4eb27	0.02403791
219	0x3cc38523	0.023867195
220	0xbe6a8567	-0.22902451
221	0xbe184953	-0.14871721
222	0x3e06c2cc	0.13160247
223	0x3d108aa5	0.03528847
224	0xbe35ffc4	-0.17773348
225	0x3e7e5034	0.24835283
226	0x3d9b9f70	0.0759877
227	0xbe26b802	-0.16281131
228	0x3cdd5f41	0.02702296
229	0xbd81b7aa	-0.06333859
230	0xbddc238f	-0.1074897
231	0x3d80e5b9	0.06293816
232	0x3d0ada54	0.03389962
233	0xbd38c92c	-0.045113727
234	0xbdef1697	-0.116742305
235	0x3e120e00	0.14263153
236	0x3d203553	0.039113354
237	0xbe38bc50	-0.18040586
238	0xbe4273fb	-0.18989556
239	0x3e50f1b6	0.20404705
240	0xbe39cd27	-0.18144666
241	0x3e5b4176	0.2141169
242	0x3e0c0630	0.13674235
243	0xbda28be8	-0.07936841
244	0x3d81903b	0.06326338
245	0xbe178fe8	-0.1480099
246	0x3e759309	0.2398187
247	0x3dfcbbf5	0.123405375
248	0x3e6d5705	0.23177727
249	0xbe7a43e7	-0.24439965
250	0x3e055eea	0.13024488
251	0x3db44205	0.08801655
252	0x3dc28cdb	0.09499522
253	0x3e6f40cd	0.23364563
254	0xbe620f4e	-0.22076151
255	0x3d292f25	0.041304726

bias f4 [100]
0	0x3dc4f5db	0.09617206
1	0x3da3ab9a	0.07991715
2	0xbe279973	-0.1636713
3	0x3e2d82d0	0.16944432
4	0xbdf7e29c	-0.12103769
5	0xbc067ac0	-0.008207977
6	0xbc4e1b2f	-0.012579723
7	0x3e2ba199	0.16760863
8	0x3e4fd389	0.20295538
9	0x3e43b2f3	0.19111232
10	0x3d73d1b2	0.059526153
11	0x3dc97e23	0.09838512
12	0xbe034a48	-0.12821305
13	0xbe497f95	-0.19677575
14	0xbe64c25d	-0.22339769
15	0xbe1cbee7	-0.15307198
16	0xbdf14d6e	-0.11782347
17	0x3dc3ceb2	0.095609084
18	0x3d0693b7	0.032855716
19	0xbe2a0ece	-0.1660721
20	0xbe8c39da	-0.27387887
21	0xbe502ca0	-0.20329523
22	0x3e7bd7dd	0.24594064
23	0x3d74e143	0.05978514
24	0xbe9286d1	-0.28618482
25	0x3d85d5c8	0.06534916
26	0xbdd5e0a3	-0.10443237
27	0x3e44d6ff	0.1922264
28	0xbe397417	-0.18110691
29	0xbd06a42f	-0.03287142
30	0x3e1790b5	0.14801295
31	0x3e356a08	0.17716229
32	0xba703080	-0.00091625005
33	0xbd3180b6	-0.04333564
34	0x3ddf723a	0.10910459
35	0xbd57c5bf	-0.05267882
36	0xbda2ccb7	-0.079492025
37	0xbd9f77f2	-0.0778655
38	0x3c25a605	0.010110383
39	0x3e3ffe34	0.18749315
40	0x3e5b1f14	0.21398574
41	0x3ddb89d4	0.10719648
42	0xbe59a3f1	-0.21253945
43	0xbdadf0c4	-0.08493188
44	0xbd80d1bc	-0.06290004
45	0x3d521220	0.051286817
46	0x3c1b791b	0.009489323
47	0xbe0f1be2	-0.1397548
48	0xbd33eb15	-0.043925364
49	0x3e0d3e3b	0.1379327
50	0xbe30e58f	-0.1727507
51	0xbe142824	-0.14468437
52	0x3d4bea87	0.04978421
53	0x3d0f976e	0.035056524
54	0x3e5e13a6	0.21687183
55	0xbd687c9c	-0.05675946
56	0x3c511130	0.0127604455
57	0x3e00aa51	0.1256497
58	0xbddcfadb	-0.107900344
59	0x3e354270	0.17701125
60	0x3c98a90b	0.018635293
61	0xbd96bbb3	-0.073600195
62	0xbccd3957	-0.025051756
63	0xbe6626d3	-0.22475748
64	0x3e47544c	0.1946575
65	0x3e1fd97a	0.15610304
66	0x3d7d4056	0.061828934
67	0x3ddda9c2	0.10823394
68	0xbe346e38	-0.1762017
69	0x3e515aff	0.20444869
70	0xbe33d3e5	-0.175613
71	0x3cdbd526	0.026835036
72	0xbbf51408	-0.0074791946
73	0xbd35aad9	-0.044352386
74	0xbd0e1a2b	-0.034692924
75	0xbd2d08c6	-0.042244695
76	0x3d814c6f	0.06313407
77	0xbe76c3f5	-0.24098189
78	0x3d2e82db	0.042605262
79	0xbe51f5f1	-0.20503975
80	0x3da5e1d5	0.08099715
81	0xbe7881c5	-0.24268253
82	0x3cf57680	0.029963732
83	0xbe5db30f	-0.21650337
84	0x3d27296f	0.040811
85	0xbdedc77c	-0.11610314
86	0x3e235104	0.15948874
87	0xbd87e349	-0.06635148
88	0x3e3fd991	0.18735339
89	0x3dc7481e	0.09730552
90	0x3e4efae5	0.20212896
91	0xbda539e6	-0.08067684
92	0x3e13f7ab	0.14449947
93	0x3dbc5c39	0.091972776
94	0x3e0f8790	0.14016557
95	0xbd86c3ee	-0.06580339
96	0x3e20e405	0.15711983
97	0x3e87c27a	0.2651556
98	0xbe00fb8e	-0.1259596
99	0x3d7c38cf	0.061577614

weight f4 [100, 100]
0	0x3da677e9	0.0812834
1	0xbd82366b	-0.06358036
2	0xbccad2b7	-0.02475868
3	0x3d7e9277	0.0621514
4	0x3cf32819	0.029682206
5	0x3b05dac1	0.0020424577
6	0xbd9330c4	-0.07187036
7	0xbda25d98	-0.07928008
8	0xbd2a37b1	-0.041557018
9	0xbd5fa3df	-0.05459964
10	0xbd30ec27	-0.043193962
11	0xbd6568fc	-0.056008324
12	0x3db1c0df	0.08679365
13	0x3dd8226c	0.105534405
14	0xbc91a0b0	-0.017776817
15	0x3d55299e	0.052041642
16	0x3c7ad000	0.01530838
17	0x3d53341b	0.051563364
18	0x3d64f000	0.055892944
19	0xbd8819a1	-0.06645513
20	0x3d9b5c6c	0.075859874
21	0xbdc5cbed	-0.096580364
22	0xbca07a1e	-0.01958948
23	0x3dba61fc	0.0910072
24	0xbd05b364	-0.032641783
25	0x3d7bd9d2	0.061487027
26	0xbdca8041	-0.09887744
27	0x3cf2bf67	0.029632283
28	0xbd89eb97	-0.06734388
29	0xbd6eef66	-0.058333777
30	0x3db3c796	0.08778302
31	0x3dca14be	0.098672375
32	0xbdacce03	-0.08437731
33	0xbdb6f683	-0.08933737
34	0x3d080847	0.03321102
35	0xbc9a5c19	-0.018842744
36	0xbcd006b3	-0.02539382
37	0x3d800d46	0.06252532
38	0x3d617255	0.055040676
39	0xbc3536c6	-0.011060422
40	0xbce1134d	-0.027475024
41	0xbc07c51f	-0.008286743
42	0x3d49344d	0.049122144
43	0x3c80b2c8	0.01571025
44	0x3c69915b	0.014255847
45	0x3d80c5f9	0.0628776
46	0xbd214796	-0.03937491
47	0x3c2e4df2	0.010638701
48	0x3b44d835	0.0030036096
49	0x3cdd50d2	0.027016077
50	0xbc1838b1	-0.00929086
51	0xbc6bba63	-0.0143877
52	0xbdb19cfa	-0.08672519
53	0xbd5bbf65	-0.053649325
54	0xbc28fe3b	-0.0103145195
55	0xbd136f40	-0.03599477
56	0x3d9de349	0.07709367
57	0xbb782299	-0.0037862419
58	0x3ccdde0d	0.025130296
59	0xbb43c5b0	-0.002987247
60	0x3d6602de	0.056155078
61	0xbd822acc	-0.06355819
62	0xbccd01cb	-0.025025269
63	0xbdd6e1b3	-0.104922675
64	0xbd343c67	-0.044002917
65	0x3c8bc9b5	0.017063955
66	0x3d0363a1	0.032077435
67	0x3d7a32b0	0.061083496
68	0x3ca4f56a	0.020136554
69	0xbb1e61e1	-0.0024167227
70	0x3c55f2bb	0.01305836
71	0xbde830d8	-0.11337441
72	0xbdbfff09	-0.09374816
73	0xbdb4082d	-0.08790622
74	0xbd8b8877	-0.06813138
75	0xbdd9ffd9	-0.10644502
76	0x3d1ba75e	0.03800141
77	0xbdc8d982	-0.09807111
78	0x3d8a9ca0	0.06768155
79	0xbdb05bca	-0.086112574
80	0xbcd9b298	-0.026574418
81	0x3d3d71ac	0.046250984
82	0x3cc89c20	0.024488509
83	0x3d48df4c	0.049041077
84	0x3d64b1b4	0.055833533
85	0xbcf00f99	-0.029304313
86	0x3d133a3e	0.035944216
87	0xbcd0e663	-0.025500482
88	0x3c923e7f	0.017852066
89	0x3d821b43	0.06352856
90	0xbda1052b	-0.07862314
91	0xbb8b5625	-0.0042522126
92	0x3c8dbc16	0.0173016
93	0x3cce090b	0.025150796
94	0xbd12bdd5	-0.03582557
95	0xbcd44f70	-0.025916785
96	0xbdaa08e7	-0.08302479
97	0xbdaca5fe	-0.08430098
98	0xbd24c9c4	-0.04023148
99	0x3cf88bac	0.030340038
100	0xbddaa57b	-0.10676094
101	0xbd39f881	-0.045403007
102	0xbdba7b4c	-0.09105548
103	0x3d9913ed	0.07474504
104	0x3d8fc9bd	0.070209004
105	0xbc01a2c1	-0.007912339
106	0xbdf727c2	-0.1206813
107	0xbd05397b	-0.03252552
108	0x3e0b8aa3	0.13627104
109	0x3d1fc31b	0.039004426
110	0xbdc28f9e	-0.09500049
111	0x3d4f510e	0.05061441
112	0x3d3e92cd	0.04652672
113	0xbd937f76	-0.072020456
114	0xbd877e14	-0.06615844
115	0x3d999f5c	0.075010985
116	0x3d87ae33	0.06625023
117	0x3d1e62c1	0.038668398
118	0x3d9c39ac	0.076281875
119	0xbcf43dac	-0.029814564
120	0x3bd10fec	0.006380072
121	0xbd26b45b	-0.040699344
122	0x3d56d463	0.05244864
123	0x3d851be2	0.06499459
124	0x3d228cf9	0.039685223
125	0x3da4ba20	0.08043313
126	0x3c69c702	0.014268639
127	0xbcfe0b3c	-0.031011216
128	0x3d8fb398	0.07016677
129	0xbd400ce8	-0.04688731
130	0xbe02cbfa	-0.12773123
131	0xbcb8ba46	-0.02254976
132	0xbd2a4041	-0.041565184
133	0xbd86d20f	-0.06583034
134	0xbdc9824c	-0.09839305
135	0xbc57dc3e	-0.013175068
136	0xbda78037	-0.08178752
137	0x3cdf8546	0.02728523
138	0x3d38dcd2	0.045132466
139	0xbdb7a210	-0.08966458
140	0x3c4aa3aa	0.012368122
141	0x3d843fef	0.06457507
142	0x3d1cbdfc	0.03826712
143	0x3c7f4fb5	0.0155829685
144	0xbd2bda09	-0.04195598
145	0x3d205c35	0.039150435
146	0xbdb9a683	-0.09064963
147	0x3d8247ec	0.06361374
148	0xbdb82ac7	-0.08992534
149	0x3dc5653c	0.096384495
150	0xbd3b5f2d	-0.045745064
151	0x3b86e059	0.0041161
152	0x3c9fc7e2	0.019504491
153	0x3cad8fe9	0.021186786
154	0x3be598bf	0.007006734
155	0xbd965a45	-0.07341436
156	0x3d1eff68	0.038817793
157	0xbd920a58	-0.07130879
158	0xbd8103b3	-0.06299534
159	0xbc23b2c4	-0.0099913515
160	0x3c311773	0.010808813
161	0xbd6c70a5	-0.057724614
162	0xbdb276ec	-0.08714089
163	0x3cffc42f	0.031221477
164	0xbd976f18	-0.07394236
165	0xbd80f454	-0.06296602
166	0x3d9c39ba	0.07628198
167	0x3d4bcecb	0.04975776
168	0x3db083ea	0.086189106
169	0xbdcee8e5	-0.10103015
170	0xbdd7274c	-0.10505542
171	0x3d38e84e	0.045143418
172	0xbcb9b89f	-0.022671042
173	0x3d5ac429	0.05340973
174	0x3d42aaff	0.047526356
175	0xbc18112b	-0.009281437
176	0xbd07d113	-0.033158373
177	0x3c94e311	0.01817468
178	0x3d15494b	0.03644685
179	0xbd816272	-0.06317605
180	0x3d0a34c5	0.03374173
181	0xbd87f6c2	-0.06638862
182	0xbd934159	-0.071901985
183	0x3c4b9453	0.0124255
184	0x3dde5d96	0.10857694
185	0xbd55bd2f	-0.052182373
186	0x3b6b42a5	0.0035897878
187	0x3d831fae	0.06402527
188	0x3d974d2c	0.07387766
189	0x3d4d9411	0.050190035
190	0x3d58113c	0.05275081
191	0x3daddf66	0.084898755
192	0x3d9300f4	0.07177916
193	0x3d6e2464	0.058140174
194	0x3d85d33b	0.0653443
195	0x3d66cf10	0.056349814
196	0xbd3f51b2	-0.04670877
197	0x3d46bcf9	0.048520062
198	0x3c97727f	0.018487213
199	0xbd398dec	-0.045301363
200	0x3d5f4d64	0.054517165
201	0x3d919de7	0.071101956
202	0x3c553cfd	0.013015029
203	0xbda54f92	-0.080718175
204	0xbc9ec646	-0.019381654
205	0xbcd283f3	-0.025697684
206	0xb98a2e95	-0.00026356117
207	0x3d9775f6	0.07395546
208	0x3c4a6dd4	0.012355287
209	0x3b133fe4	0.0022468502
210	0x3c15ce53	0.00914343
211	0x3d86673a	0.06562658
212	0xbcb1e075	-0.021713475
213	0xbd8bae4c	-0.06820354
214	0x3d55c99a	0.052194215
215	0x3c8af0bc	0.016960494
216	0x3d08d56e	0.033406667
217	0xbc79f396	-0.015255829
218	0xbd75f8e4	-0.060051814
219	0xbdbfc3c0	-0.09363508
220	0xbd67944a	-0.056537904
221	0x3d3e6047	0.046478536
222	0xbc618891	-0.01376547
223	0xbda87864	-0.08226088
224	0x3c3fc48c	0.011704575
225	0x3cee12f5	0.029061774
226	0xbde1959f	-0.11014866
227	0x3d6514c4	0.055928007
228	0x3da91f36	0.08257906
229	0x3dec7390	0.11545479
230	0x3d8c0416	0.06836717
231	0xbd9a9cd8	-0.07549447
232	0x3d3ce243	0.046114217
233	0x3d772511	0.060338084
234	0xbe0e2864	-0.13882595
235	0x3d1623c7	0.036655214
236	0xbdc7a476	-0.09748165
237	0xbd6ce4fa	-0.057835557
238	0x3a01579c	0.0004934014
239	0xbdc8098a	-0.097674444
240	0xbda6382e	-0.08116184
241	0x3d3041ab	0.043031376
242	0xbe009318	-0.12556112
243	0x3de7b4b4	0.11313763
244	0xbcfa203f	-0.030532954
245	0x3da1d0b1	0.07901133
246	0xbd5829f4	-0.052774385
247	0x3da0e5e0	0.07856345
248	0xbcf2241b	-0.029558232
249	0xbccf473a	-0.025302518
250	0x3cf64a60	0.030064762
251	0x3d916215	0.07098786
252	0xbe082f6e	-0.13299343
253	0x3dafb10f	0.08578693
254	0xbd7633bb	-0.060107928
255	0xbca3018a	-0.019898195

bias f4 [100]
0	0xbde9c4a6	-0.11414461
1	0xbbf8be44	-0.007591041
2	0xbd345da8	-0.04403463
3	0xbd9ddd47	-0.07708221
4	0xbde1cc34	-0.11025277
5	0x3d662134	0.05618401
6	0x3d28d4ca	0.041218556
7	0x3d48f2aa	0.049059547
8	0x3c160e66	0.009158706
9	0xbe0c52ce	-0.13703462
10	0xbd8e9a63	-0.06963041
11	0xbe1b5c04	-0.1517182
12	0xbd87b492	-0.06626238
13	0xbdc16fd2	-0.09445156
14	0x3ce891b5	0.028389791
15	0x3c9d2362	0.01918191
16	0xbdcf02cb	-0.101079546
17	0xbd02ef5c	-0.031966552
18	0xbdc1ca9f	-0.09462475
19	0x3cb4c921	0.022068562
20	0xbdd4c031	-0.1038822
21	0xbdc9ab5d	-0.09847138
22	0xbd788bfe	-0.060680382
23	0x3cb7ed72	0.02245209
24	0xbca181c5	-0.0197152
25	0xbcf34456	-0.029695671
26	0x3b0ec3cd	0.0021784187
27	0x3d8a7b1c	0.067617625
28	0xbd1c2286	-0.03811886
29	0xbd07df65	-0.03317203
30	0xbd282d70	-0.041058958
31	0x3dbb8a4b	0.09157237
32	0xbdbad0a5	-0.09121827
33	0xbd50f8a7	-0.051018383
34	0x3d00be1a	0.031431295
35	0xbd95a284	-0.07306388
36	0xbacd54e6	-0.001566556
37	0x3d50af65	0.05094852
38	0x3d248130	0.040162265
39	0x3c9fd6e3	0.019511646
40	0xbd2b5286	-0.041826747
41	0x3db199f6	0.08671944
42	0x3d1f719e	0.038926713
43	0xbd24f03d	-0.04026817
44	0x3cec2e78	0.028830752
45	0xbdaf5ba0	-0.08562398
46	0xbd0028b4	-0.031288818
47	0xbd1b6f41	-0.037947897
48	0xbdec207e	-0.11529635
49	0xbd36c580	-0.044621944
50	0x3c5fc000	0.013656616
51	0xbb2c8e92	-0.0026330096
52	0x3d1324b2	0.035923667
53	0x3d9eda4c	0.077564806
54	0x3b666a9a	0.0035158754
55	0x3d851064	0.06497267
56	0xbd7989c4	-0.0609224
57	0x3c4200db	0.011841024
58	0xbd9bd315	-0.0760862
59	0xbd993de7	-0.0748251
60	0xbdb130ff	-0.086519234
61	0xbb610915	-0.0034337689
62	0x3dcd6132	0.10028304
63	0xbd9f5abd	-0.07780979
64	0xbd228fc6	-0.039687894
65	0x3d3b0ddf	0.045667525
66	0x3daf0349	0.085455485
67	0xbd8ed0c1	-0.069734104
68	0xbdb1f7f7	-0.08689874
69	0xbd7e7092	-0.062119074
70	0xbdc8fb5b	-0.09813567
71	0x3d39a5f9	0.0453243
72	0x3d5a6d4c	0.05332689
73	0xbd9ef576	-0.07761662
74	0x3d739385	0.059466857
75	0x3b785223	0.0037890754
76	0xbda3b456	-0.07993381
77	0xbdac026d	-0.083989
78	0xbdb7f5d7	-0.08982437
79	0xbe11f0d5	-0.14252026
80	0x3b601fb7	0.003419859
81	0xbdbafadf	-0.09129881
82	0x3d856cf7	0.06514924
83	0xbb4ac2a3	-0.0030938766
84	0x3d9c4d15	0.0763189
85	0xbcd36acb	-0.025807759
86	0xbd953924	-0.07286289
87	0x3d145b4f	0.03621989
88	0x3d11442d	0.035465408
89	0xbd430063	-0.04760779
90	0xbcdb23bc	-0.026750438
91	0xbdbe483f	-0.092911236
92	0x3c951ace	0.018201258
93	0x3c1a1d12	0.009406345
94	0xbc551c35	-0.013007213
95	0xbd0e4f58	-0.034743637
96	0xbcebc909	-0.028782384
97	0xbcbcd0e5	-0.023048827
98	0xbd92ff89	-0.07177646
99	0xbcd568a3	-0.026050871

weight f4 [100, 100]
0	0x3daa589f	0.083176844
1	0xbd655853	-0.055992436
2	0xbce93917	-0.028469605
3	0x3b1b8f97	0.002373671
4	0x3d88d305	0.06680874
5	0xbd4b37a2	-0.049613602
6	0x3de09919	0.10966701
7	0xbdc83d0c	-0.09777269
8	0x3d3e8a84	0.046518818
9	0x3d80be4e	0.06286298
10	0xbca2efb4	-0.01988969
11	0xbd7af413	-0.061267924
12	0xbdaf655e	-0.08564256
13	0xbd8e622f	-0.06952321
14	0x3d89436b	0.06702312
15	0x3df38f40	0.11892557
16	0xbd82be9e	-0.063840136
17	0xbd860609	-0.0654412
18	0xbd535e04	-0.051603332
19	0xbdbd280d	-0.09236155
20	0x3d78f798	0.060783
21	0x3c17ad74	0.009257663
22	0x3dd16288	0.102238715
23	0x3db669a8	0.08906871
24	0xbd0a3910	-0.033745825
25	0x3d65bd3a	0.056088664
26	0xbd12060c	-0.035650298
27	0x3d664860	0.056221366
28	0xba909187	-0.0011029699
29	0xbd06390a	-0.03276924
30	0x3cbd5285	0.023110637
31	0x3dc1c9b4	0.094623
32	0xbc5a5d8a	-0.0133279655
33	0x3d08c88a	0.033394374
34	0x3db8e951	0.090288766
35	0x3ceee764	0.02916307
36	0x3dca59a1	0.098803766
37	0x3d5c7c76	0.053829633
38	0x3b72ba9c	0.0037037497
39	0xbc0eed50	-0.008723572
40	0xbd7aa788	-0.061194927
41	0xbcc522e3	-0.024064487
42	0xbceb2211	-0.028702768
43	0xbc483e10	-0.012221828
44	0xbc55ffce	-0.013061477
45	0xbb8542bd	-0.0040667937
46	0xbd9ca695	-0.076489605
47	0xbd80f990	-0.062976
48	0xbba8d7d6	-0.005152683
49	0x3dc8f619	0.098125644
50	0xbc079168	-0.008274414
51	0x3c9286e4	0.017886586
52	0x3d998670	0.07496345
53	0xbafe8da4	-0.0019420874
54	0xbd14e735	-0.03635331
55	0xbb781df2	-0.0037859646
56	0x3de08b22	0.109640375
57	0x3d2a76fa	0.04161737
58	0x3d8a9414	0.06766525
59	0xbdc85f96	-0.097838566
60	0x3d25eb9d	0.0405079
61	0xbdc07744	-0.09397748
62	0xbde673af	-0.11252534
63	0xbcd89c01	-0.026441576
64	0xbc0cebbf	-0.008601128
65	0x3d3b7b2c	0.045771763
66	0x3d4bb92d	0.049737144
67	0xbc936cc3	-0.017996198
68	0xbdc4f235	-0.0961651
69	0xbd994106	-0.07483105
70	0xbda2548d	-0.07926283
71	0x3da151d7	0.07876938
72	0x3db8b89c	0.090195864
73	0xbd619629	-0.055074845
74	0x3d3fc6d7	0.046820488
75	0x3d3b7a3e	0.045770876
76	0xbd0e5c59	-0.03475604
77	0xbca0438f	-0.019563464
78	0xbda4364e	-0.0801817
79	0x3b2c1aa2	0.0026260992
80	0xbd638a89	-0.05555204
81	0xbd7180c4	-0.05896069
82	0xbdc63b89	-0.09679324
83	0xbd12dcb4	-0.03585501
84	0xbdcc2e4f	-0.0996977
85	0xbda33fe4	-0.079711705
86	0x3c5378e5	0.0129072415
87	0xbdb7f3a5	-0.089820184
88	0xbd8a998a	-0.067675665
89	0x3c5217a1	0.012823016
90	0xbd3d4fa2	-0.046218522
91	0xbd7244e9	-0.05914775
92	0x3d91f1ab	0.07126173
93	0x3d9b5f80	0.075865746
94	0xbdfbca2e	-0.12294422
95	0x3cf8c7a1	0.030368628
96	0xbdb0dd22	-0.08635928
97	0xbdcd5a86	-0.100270316
98	0xbd735ebc	-0.059416518
99	0x3c0be766	0.008539056
100	0x3d780e68	0.060560614
101	0xbc9d27b0	-0.019183964
102	0x3cb80363	0.022462552
103	0xbcca38a5	-0.024685213
104	0x3da4b922	0.08043124
105	0x3d0376f6	0.032095872
106	0xbda5f0af	-0.081025474
107	0xbdbb18fb	-0.09135624
108	0x3d7eb5ad	0.06218498
109	0x3d09877e	0.03357648
110	0xbd77e59a	-0.0605217
111	0xbca5df16	-0.020247977
112	0xbcb54060	-0.022125423
113	0x3c4ba271	0.012428866
114	0x3d0c870e	0.034308486
115	0x3d3e15c9	0.046407495
116	0x3dc721c6	0.09723239
117	0xbd95836b	-0.073004566
118	0x3d0baaf7	0.03409859
119	0xbdb67ada	-0.08910151
120	0x3dc7a569	0.09748346
121	0x3cc93e59	0.024565862
122	0xbdaf44a8	-0.08558017
123	0xbdbf1c7e	-0.09331606
124	0xbd89582f	-0.06706273
125	0x3dbbd8fb	0.09172245
126	0x3cfc1586	0.030771982
127	0xbdd1a492	-0.102364674
128	0xbd486bf1	-0.048931066
129	0x3d8f9a05	0.07011799
130	0xbdc3c9a2	-0.09559943
131	0x3d82baf2	0.06383313
132	0x3d39b8e5	0.045342345
133	0xbda02be1	-0.07820869
134	0x3c704e09	0.0146670425
135	0xbbc13a12	-0.005896815
136	0xbd87d195	-0.066317715
137	0x3d2423fd	0.040073384
138	0xbd59972f	-0.053122696
139	0xbd9d422e	-0.076786384
140	0xbb8f8c6c	-0.0043807533
141	0x3d327e1f	0.04357731
142	0xbdca3362	-0.09873082
143	0xbd37ce04	-0.044874206
144	0x3ac6df70	0.0015172791
145	0xbd945db7	-0.07244437
146	0x3da7c5b3	0.08192005
147	0xbdcb894f	-0.09938299
148	0xbd2b2b9d	-0.04178964
149	0xbba0a93d	-0.0049029873
150	0x3d495604	0.049154297
151	0xbb0abc69	-0.002116943
152	0x3d1a1889	0.037621055
153	0xbd012f1b	-0.031539064
154	0xbc349f40	-0.011024296
155	0x3d2f84de	0.04285132
156	0x3b9d604f	0.0048027406
157	0xbd68314d	-0.056687642
158	0xbd40cf28	-0.04707256
159	0x3d53b35e	0.05168473
160	0xbd27bec7	-0.040953424
161	0x3d81949f	0.06327175
162	0xbda9ebf3	-0.08296957
163	0x3d0a8e1d	0.033826936
164	0xbdaeb661	-0.0853088
165	0x3d533539	0.05156443
166	0xbd405f82	-0.046966083
167	0xbc833002	-0.016014103
168	0xbdb2491a	-0.08705349
169	0xbd5593c5	-0.052142877
170	0x3dbd4062	0.09240796
171	0xbbc0fa63	-0.0058892234
172	0x3d6d4904	0.05793096
173	0x3dbb83f4	0.091560274
174	0xbcbf188c	-0.023327135
175	0xbd88fb84	-0.06688598
176	0xbd1a7e00	-0.03771782
177	0xbdbc9b9e	-0.09209369
178	0xbd9c1079	-0.076203294
179	0x3cfed1d9	0.031105923
180	0xbd37e1bd	-0.044893015
181	0x3d22ebe7	0.039775755
182	0x3bb71527	0.0055872384
183	0xbb8e4164	-0.0043412913
184	0xbc0f014e	-0.008728338
185	0xb9f82d5e	-0.00047336047
186	0xbd4d09ae	-0.05005806
187	0xbda33ca0	-0.07970548
188	0x3cc1acb5	0.023641923
189	0x3c7c5496	0.015401026
190	0xbd484a12	-0.048898764
191	0x3c9049bc	0.017613284
192	0x3da003bc	0.07813212
193	0xbd96d615	-0.07365052
194	0x3c05d81b	0.008169199
195	0xbc29ab96	-0.010355851
196	0xbc17c80b	-0.009264003
197	0xbd20d1a1	-0.039262418
198	0xbd9d4951	-0.076799996
199	0x3d80a9ed	0.06282411
200	0x3d21ad7e	0.039472096
201	0xbdaa5590	-0.08317101
202	0xbb2a6533	-0.002600026
203	0x3da20955	0.07911936
204	0xbd8f6885	-0.070023574
205	0x3c05a373	0.008156645
206	0x3cd4f561	0.025995912
207	0x3d6bf558	0.057607025
208	0xbd2666c1	-0.040625338
209	0xbdae8c18	-0.085228145
210	0xbd398466	-0.04529228
211	0xbd97de22	-0.07415415
212	0xbaee441b	-0.0018178256
213	0xbd3fb273	-0.04680104
214	0xbd9529aa	-0.072833374
215	0x3d5532a2	0.05205024
216	0x3d69fb9f	0.05712473
217	0x3da59bfe	0.08086394
218	0xbcb8c569	-0.02255507
219	0x3da9a6ba	0.08283754
220	0x3da6210a	0.081117705
221	0xbdabb549	-0.08384187
222	0xbdb1f486	-0.08689217
223	0x3d604765	0.054755587
224	0xbdc32225	-0.09527997
225	0x3c0ea174	0.008705486
226	0xbdb499a5	-0.08818368
227	0xbae07f8f	-0.0017127859
228	0x3d98415b	0.074343406
229	0x3dbc021d	0.091800906
230	0xbd0c7176	-0.034287892
231	0x3da2d8eb	0.0795153
232	0x3c8daed1	0.017295273
233	0x3d64fc9c	0.05590497
234	0xbdc64285	-0.09680656
235	0xbbbd76ca	-0.005781983
236	0xbd77c654	-0.060491875
237	0xbc61d3fb	-0.01378345
238	0x3c0d718f	0.0086330315
239	0xbc87bf8a	-0.016570825
240	0xbdba3515	-0.09092156
241	0x3d1fcf97	0.039016332
242	0x3de68b2b	0.11257013
243	0xbdd98dbd	-0.106227376
244	0x3d81ddfb	0.063411675
245	0x3c395187	0.011310942
246	0xbdceb367	-0.10092812
247	0x3ca3b639	0.019984351
248	0xbdcd8d4f	-0.10036718
249	0x3d503ffa	0.050842263
250	0xbd57cc3b	-0.052685004
251	0xbda819d8	-0.08208054
252	0xbc8906ee	-0.016726937
253	0xbd7bd87f	-0.061485764
254	0xbd0f590f	-0.034997042
255	0x3d83b094	0.06430164

bias f4 [100]
0	0x3cb47edf	0.022033153
1	0x3cde1de4	0.027113862
2	0x3cebd4ee	0.028788056
3	0xbd884e29	-0.06655533
4	0xbd820f7a	-0.06350608
5	0xbd3fd45a	-0.046833374
6	0x3d353e65	0.044248957
7	0x3cc3f02a	0.02391823
8	0xbde96606	-0.113964126
9	0xbdc83286	-0.097752616
10	0xbb8d8db1	-0.0043198694
11	0xbda4e50d	-0.080515005
12	0x3db12314	0.08649269
13	0x3d3ac173	0.045594644
14	0x3d7a95f3	0.06117816
15	0xbd27f8ad	-0.04100864
16	0xbdb45d68	-0.08806878
17	0x3d8fa521	0.07013918
18	0xbd1aafcf	-0.03776532
19	0x3cbcbbf7	0.023038847
20	0xbddbce55	-0.10732714
21	0xbd2e0583	-0.042485725
22	0x3bb915ef	0.0056483666
23	0xbcc3afdb	-0.023887565
24	0x3dc079cb	0.0939823
25	0xbd56cb67	-0.052440073
26	0xbd7556a8	-0.059897095
27	0xbc5446c7	-0.012956328
28	0xbd68913b	-0.056779128
29	0xbd54608d	-0.05184989
30	0xbc5a296f	-0.013315543
31	0xbd4b06ef	-0.04956716
32	0xbdef3c27	-0.11681395
33	0x3d24ce79	0.04023597
34	0xbc8b050f	-0.016970186
35	0x3c45d641	0.012075008
36	0xbdb4c621	-0.088268526
37	0xbc6ec643	-0.014573636
38	0xbdacc265	-0.08435515
39	0xbd6035bb	-0.05473874
40	0xbd4ae9f3	-0.049539518
41	0xbddb1a44	-0.10698369
42	0xbd62cd01	-0.05537129
43	0x3d4510dc	0.04811178
44	0xbe01a798	-0.12661588
45	0x3c9e4bae	0.019323196
46	0x3d74573d	0.05965351
47	0x3bfd1f0e	0.0077246493
48	0x3d366adb	0.0445355
49	0xbd9a1e5f	-0.07525324
50	0xbdaec4bb	-0.08533617
51	0x3b0bcf64	0.0021333331
52	0x3cc2842d	0.023744667
53	0xbd4ea349	-0.05044869
54	0xbcde73cf	-0.027154831
55	0x3c6e064d	0.014527869
56	0xbc39cbf8	-0.011340134
57	0xbc9424ee	-0.018084016
58	0xbdd4417a	-0.10364051
59	0x3a9fc24d	0.0012188643
60	0x3ca8220a	0.020524044
61	0x3daa9069	0.08328325
62	0xbce2f3ce	-0.027704146
63	0xbdc40ee1	-0.095731504
64	0xbdab5a93	-0.08366885
65	0x3dbb3eab	0.09142812
66	0x3c43e90c	0.011957418
67	0x3c499b42	0.012305083
68	0xbcdf2b8f	-0.02724245
69	0x3d72a25f	0.05923688
70	0x3bf8ee35	0.007596756
71	0xbdaf82ad	-0.08569846
72	0xbdbc82e1	-0.09204651
73	0xbca4572c	-0.020061098
74	0xbdd3c218	-0.10339755
75	0xbd89a83b	-0.067215405
76	0xbdc174ce	-0.09446107
77	0xbcd94440	-0.026521802
78	0xbd2492b7	-0.04017898
79	0xbccd0504	-0.025026806
80	0xbcd89eed	-0.02644297
81	0xbc81e6d2	-0.015857134
82	0xbc9f2a60	-0.019429386
83	0xbcd1be77	-0.025603516
84	0x3cbf1963	0.023327535
85	0xbd496887	-0.04917195
86	0xbd91bbda	-0.07115908
87	0xbd82d907	-0.06389051
88	0xbd055a0e	-0.032556586
89	0x3c46c2a8	0.012131371
90	0x3cb7e780	0.022449255
91	0xbd82da2a	-0.06389268
92	0xbdaf639b	-0.0856392
93	0x3d3f6e87	0.046736266
94	0xbd0036be	-0.031302206
95	0xbe089f8e	-0.13342115
96	0x3d1a0574	0.037602857
97	0x3d0be642	0.034155138
98	0xbd0d31b7	-0.03447124
99	0xbdb8e67e	-0.09028338

weight f4 [1, 100]
0	0xbe0edeaf	-0.13952135
1	0xbc5abd27	-0.0133507615
2	0xbdb02e06	-0.08602528
3	0xbcb255f7	-0.021769507
4	0x3d14d90c	0.036339805
5	0xbc9af391	-0.01891497
6	0x3def95c7	0.1169849
7	0x3d1a1277	0.037615266
8	0x3c4e2662	0.012582393
9	0x3dec9852	0.1155249
10	0x3d4c64a6	0.049900673
11	0x3ba10389	0.0049137515
12	0xbdbf7264	-0.0934799
13	0x3d91b07c	0.0711374
14	0x3e0dfa8f	0.13865112
15	0xbbc1d19a	-0.005914879
16	0x3e02335f	0.12714909
17	0xbdafadf2	-0.08578099
18	0xbdb7e26b	-0.08978733
19	0xbdbc1c17	-0.09185045
20	0x3d8815db	0.066447936
21	0xba52bf97	-0.00080394134
22	0xbd552311	-0.052035395
23	0xbd047de1	-0.03234661
24	0x3e0f8eec	0.14019364
25	0xbcebe14a	-0.02879395
26	0x3c73a071	0.014869795
27	0x3d9b3016	0.07577531
28	0x3dec4bfa	0.11537929
29	0xbcebff19	-0.028808163
30	0xbcec5b6b	-0.028852185
31	0xbe126b7e	-0.14298818
32	0xbdd9b2f4	-0.10629836
33	0x3debaa67	0.11507111
34	0xbcb90f6c	-0.022590362
35	0xbcf6808a	-0.03009059
36	0x3d5ff455	0.054676373
37	0xbd713cbc	-0.05889581
38	0x3db53702	0.088483825
39	0x3df3ee42	0.119106784
40	0x3ce7b2ff	0.028283594
41	0xbc72190a	-0.014776478
42	0x3d1e5d65	0.038663287
43	0xbdbe4b9b	-0.09291764
44	0xbc99c85b	-0.018772295
45	0xbdee3c66	-0.11632614
46	0xbd41547d	-0.047199715
47	0xbd252458	-0.040317863
48	0x3e1bc91f	0.1521344
49	0xbd545fa0	-0.051849008
50	0xbc8da519	-0.017290639
51	0x3d9d736d	0.07688031
52	0x3de00213	0.109378956
53	0x3cfb8634	0.030703641
54	0x3d0a703f	0.033798452
55	0x3c941b7f	0.018079517
56	0xbd5f9089	-0.0545812
57	0x3d8ad00b	0.06777962
58	0x3ccd8f44	0.025092728
59	0xbdc8d146	-0.09805541
60	0xbd94209f	-0.072327845
61	0xbe18388b	-0.1486532
62	0x3d8fa257	0.07013386
63	0x3d9d4417	0.07679003
64	0xbd278ce7	-0.04090586
65	0x3e25ff59	0.16210689
66	0x3c919062	0.017769042
67	0x3d73fd7e	0.05956792
68	0xbd021c6f	-0.031765398
69	0x3e2c2201	0.16809846
70	0xbdfc74de	-0.12326978
71	0x3bd08bd8	0.006364327
72	0x3df37b1a	0.11888714
73	0xbcbd38c2	-0.023098353
74	0x3c842f1a	0.016135741
75	0x3c6fe035	0.014640857
76	0xbc863fc1	-0.016387822
77	0xbe357018	-0.17718542
78	0x3d8948e8	0.06703359
79	0xbdccfbce	-0.100089654
80	0x3dfa0778	0.12208456
81	0x3db4ea45	0.08833746
82	0xbdc3ed2f	-0.095667236
83	0xbd80bb04	-0.062856704
84	0xbd72a202	-0.059236534
85	0x3dc0bec6	0.09411387
86	0xbe0ceb3e	-0.13761613
87	0xbdcc59d8	-0.09978074
88	0x3d980e9c	0.074246615
89	0x3d203e83	0.039122116
90	0xbdbfd23a	-0.093662694
91	0xbddff648	-0.10935646
92	0x3ddf81d5	0.10913435
93	0xbe049e78	-0.12951076
94	0xbd54dcba	-0.051968314
95	0x3e0bd337	0.13654791
96	0xbd9187f4	-0.07106009
97	0xbd90dfcc	-0.07073936
98	0xbd9142f0	-0.070928454
99	0xbde88522	-0.11353518
